{
  "format": "graph-model",
  "generatedBy": "https://github.com/mnicnc404/CartoonGan-tensorflow",
  "convertedBy": "mandic00@live.com",
  "signature":
  {
      "inputs":
      {
          "input_1": {"name":"input_1:0","dtype":"DT_FLOAT","tensorShape":{"dim":[{"size":"-1"},{"size":"-1"},{"size":"-1"},{"size":"3"}]}}
      },
      "outputs":
      {
          "output_1": {"name":"Identity:0","dtype":"DT_FLOAT","tensorShape":{"dim":[{"size":"-1"},{"size":"-1"},{"size":"-1"},{"size":"3"}]}}
      }
  },
  "modelTopology":
  {
      "node":
      [
          {"name":"StatefulPartitionedCall/Generator/UpSampleConv_1/sequential_19/BasicShuffleUnitV2/Reshape/shape/0","op":"Const","attr":{"dtype":{"type":"DT_INT32"},"value":{"tensor":{"dtype":"DT_INT32","tensorShape":{}}}}},
          {"name":"StatefulPartitionedCall/Generator/UpSampleConv_1/sequential_19/BasicShuffleUnitV2/Reshape/shape/3","op":"Const","attr":{"dtype":{"type":"DT_INT32"},"value":{"tensor":{"dtype":"DT_INT32","tensorShape":{}}}}},
          {"name":"StatefulPartitionedCall/Generator/UpSampleConv_1/sequential_19/BasicShuffleUnitV2/Reshape/shape/4","op":"Const","attr":{"value":{"tensor":{"dtype":"DT_INT32","tensorShape":{}}},"dtype":{"type":"DT_INT32"}}},
          {"name":"StatefulPartitionedCall/Generator/UpSampleConv_1/sequential_19/BasicShuffleUnitV2/transpose/perm","op":"Const","attr":{"value":{"tensor":{"dtype":"DT_INT32","tensorShape":{"dim":[{"size":"5"}]}}},"dtype":{"type":"DT_INT32"}}},
          {"name":"StatefulPartitionedCall/Generator/UpSampleConv_1/sequential_19/BasicShuffleUnitV2/Reshape_1/shape/0","op":"Const","attr":{"dtype":{"type":"DT_INT32"},"value":{"tensor":{"dtype":"DT_INT32","tensorShape":{}}}}},
          {"name":"StatefulPartitionedCall/Generator/UpSampleConv_1/sequential_19/BasicShuffleUnitV2/strided_slice/stack","op":"Const","attr":{"dtype":{"type":"DT_INT32"},"value":{"tensor":{"dtype":"DT_INT32","tensorShape":{"dim":[{"size":"1"}]}}}}},
          {"name":"StatefulPartitionedCall/Generator/UpSampleConv_1/sequential_19/BasicShuffleUnitV2/strided_slice/stack_1","op":"Const","attr":{"dtype":{"type":"DT_INT32"},"value":{"tensor":{"dtype":"DT_INT32","tensorShape":{"dim":[{"size":"1"}]}}}}},
          {"name":"StatefulPartitionedCall/Generator/UpSampleConv_1/sequential_19/BasicShuffleUnitV2/strided_slice/stack_2","op":"Const","attr":{"value":{"tensor":{"dtype":"DT_INT32","tensorShape":{"dim":[{"size":"1"}]}}},"dtype":{"type":"DT_INT32"}}},
          {"name":"StatefulPartitionedCall/Generator/UpSampleConv_1/sequential_19/BasicShuffleUnitV2/sequential_18/instance_normalization_38/Mean/reduction_indices","op":"Const","attr":{"value":{"tensor":{"dtype":"DT_INT32","tensorShape":{"dim":[{"size":"3"}]}}},"dtype":{"type":"DT_INT32"}}},
          {"name":"StatefulPartitionedCall/Generator/UpSampleConv_1/sequential_19/BasicShuffleUnitV2/sequential_18/instance_normalization_37/Mean/reduction_indices","op":"Const","attr":{"dtype":{"type":"DT_INT32"},"value":{"tensor":{"dtype":"DT_INT32","tensorShape":{"dim":[{"size":"3"}]}}}}},
          {"name":"StatefulPartitionedCall/Generator/UpSampleConv_1/sequential_19/BasicShuffleUnitV2/sequential_18/instance_normalization_36/Mean/reduction_indices","op":"Const","attr":{"dtype":{"type":"DT_INT32"},"value":{"tensor":{"dtype":"DT_INT32","tensorShape":{"dim":[{"size":"3"}]}}}}},
          {"name":"StatefulPartitionedCall/Generator/UpSampleConv_1/sequential_19/BasicShuffleUnitV2/split/split_dim","op":"Const","attr":{"dtype":{"type":"DT_INT32"},"value":{"tensor":{"dtype":"DT_INT32","tensorShape":{}}}}},
          {"name":"StatefulPartitionedCall/Generator/UpSampleConv/sequential_17/BasicShuffleUnitV2/Reshape/shape/0","op":"Const","attr":{"value":{"tensor":{"dtype":"DT_INT32","tensorShape":{}}},"dtype":{"type":"DT_INT32"}}},
          {"name":"StatefulPartitionedCall/Generator/UpSampleConv/sequential_17/BasicShuffleUnitV2/Reshape/shape/3","op":"Const","attr":{"value":{"tensor":{"dtype":"DT_INT32","tensorShape":{}}},"dtype":{"type":"DT_INT32"}}},
          {"name":"StatefulPartitionedCall/Generator/UpSampleConv/sequential_17/BasicShuffleUnitV2/Reshape/shape/4","op":"Const","attr":{"dtype":{"type":"DT_INT32"},"value":{"tensor":{"dtype":"DT_INT32","tensorShape":{}}}}},
          {"name":"StatefulPartitionedCall/Generator/UpSampleConv/sequential_17/BasicShuffleUnitV2/transpose/perm","op":"Const","attr":{"value":{"tensor":{"dtype":"DT_INT32","tensorShape":{"dim":[{"size":"5"}]}}},"dtype":{"type":"DT_INT32"}}},
          {"name":"StatefulPartitionedCall/Generator/UpSampleConv/sequential_17/BasicShuffleUnitV2/Reshape_1/shape/0","op":"Const","attr":{"value":{"tensor":{"dtype":"DT_INT32","tensorShape":{}}},"dtype":{"type":"DT_INT32"}}},
          {"name":"StatefulPartitionedCall/Generator/UpSampleConv/sequential_17/BasicShuffleUnitV2/strided_slice/stack","op":"Const","attr":{"dtype":{"type":"DT_INT32"},"value":{"tensor":{"dtype":"DT_INT32","tensorShape":{"dim":[{"size":"1"}]}}}}},
          {"name":"StatefulPartitionedCall/Generator/UpSampleConv/sequential_17/BasicShuffleUnitV2/strided_slice/stack_1","op":"Const","attr":{"value":{"tensor":{"dtype":"DT_INT32","tensorShape":{"dim":[{"size":"1"}]}}},"dtype":{"type":"DT_INT32"}}},
          {"name":"StatefulPartitionedCall/Generator/UpSampleConv/sequential_17/BasicShuffleUnitV2/strided_slice/stack_2","op":"Const","attr":{"value":{"tensor":{"dtype":"DT_INT32","tensorShape":{"dim":[{"size":"1"}]}}},"dtype":{"type":"DT_INT32"}}},
          {"name":"StatefulPartitionedCall/Generator/UpSampleConv/sequential_17/BasicShuffleUnitV2/sequential_16/instance_normalization_35/Mean/reduction_indices","op":"Const","attr":{"dtype":{"type":"DT_INT32"},"value":{"tensor":{"dtype":"DT_INT32","tensorShape":{"dim":[{"size":"3"}]}}}}},
          {"name":"StatefulPartitionedCall/Generator/UpSampleConv/sequential_17/BasicShuffleUnitV2/sequential_16/instance_normalization_34/Mean/reduction_indices","op":"Const","attr":{"dtype":{"type":"DT_INT32"},"value":{"tensor":{"dtype":"DT_INT32","tensorShape":{"dim":[{"size":"3"}]}}}}},
          {"name":"StatefulPartitionedCall/Generator/UpSampleConv/sequential_17/BasicShuffleUnitV2/sequential_16/instance_normalization_33/Mean/reduction_indices","op":"Const","attr":{"dtype":{"type":"DT_INT32"},"value":{"tensor":{"dtype":"DT_INT32","tensorShape":{"dim":[{"size":"3"}]}}}}},
          {"name":"StatefulPartitionedCall/Generator/UpSampleConv/sequential_17/BasicShuffleUnitV2/split/split_dim","op":"Const","attr":{"dtype":{"type":"DT_INT32"},"value":{"tensor":{"dtype":"DT_INT32","tensorShape":{}}}}},
          {"name":"StatefulPartitionedCall/Generator/sequential_15/BasicShuffleUnitV2_7/Reshape/shape/0","op":"Const","attr":{"dtype":{"type":"DT_INT32"},"value":{"tensor":{"dtype":"DT_INT32","tensorShape":{}}}}},
          {"name":"StatefulPartitionedCall/Generator/sequential_15/BasicShuffleUnitV2_7/Reshape/shape/3","op":"Const","attr":{"dtype":{"type":"DT_INT32"},"value":{"tensor":{"dtype":"DT_INT32","tensorShape":{}}}}},
          {"name":"StatefulPartitionedCall/Generator/sequential_15/BasicShuffleUnitV2_7/Reshape/shape/4","op":"Const","attr":{"value":{"tensor":{"dtype":"DT_INT32","tensorShape":{}}},"dtype":{"type":"DT_INT32"}}},
          {"name":"StatefulPartitionedCall/Generator/sequential_15/BasicShuffleUnitV2_7/transpose/perm","op":"Const","attr":{"value":{"tensor":{"dtype":"DT_INT32","tensorShape":{"dim":[{"size":"5"}]}}},"dtype":{"type":"DT_INT32"}}},
          {"name":"StatefulPartitionedCall/Generator/sequential_15/BasicShuffleUnitV2_7/Reshape_1/shape/0","op":"Const","attr":{"dtype":{"type":"DT_INT32"},"value":{"tensor":{"dtype":"DT_INT32","tensorShape":{}}}}},
          {"name":"StatefulPartitionedCall/Generator/sequential_15/BasicShuffleUnitV2_7/strided_slice/stack","op":"Const","attr":{"value":{"tensor":{"dtype":"DT_INT32","tensorShape":{"dim":[{"size":"1"}]}}},"dtype":{"type":"DT_INT32"}}},
          {"name":"StatefulPartitionedCall/Generator/sequential_15/BasicShuffleUnitV2_7/strided_slice/stack_1","op":"Const","attr":{"value":{"tensor":{"dtype":"DT_INT32","tensorShape":{"dim":[{"size":"1"}]}}},"dtype":{"type":"DT_INT32"}}},
          {"name":"StatefulPartitionedCall/Generator/sequential_15/BasicShuffleUnitV2_7/strided_slice/stack_2","op":"Const","attr":{"value":{"tensor":{"dtype":"DT_INT32","tensorShape":{"dim":[{"size":"1"}]}}},"dtype":{"type":"DT_INT32"}}},
          {"name":"StatefulPartitionedCall/Generator/sequential_15/BasicShuffleUnitV2_7/sequential_14/instance_normalization_32/Mean/reduction_indices","op":"Const","attr":{"value":{"tensor":{"dtype":"DT_INT32","tensorShape":{"dim":[{"size":"3"}]}}},"dtype":{"type":"DT_INT32"}}},
          {"name":"StatefulPartitionedCall/Generator/sequential_15/BasicShuffleUnitV2_7/sequential_14/instance_normalization_31/Mean/reduction_indices","op":"Const","attr":{"value":{"tensor":{"dtype":"DT_INT32","tensorShape":{"dim":[{"size":"3"}]}}},"dtype":{"type":"DT_INT32"}}},
          {"name":"StatefulPartitionedCall/Generator/sequential_15/BasicShuffleUnitV2_7/sequential_14/instance_normalization_30/Mean/reduction_indices","op":"Const","attr":{"dtype":{"type":"DT_INT32"},"value":{"tensor":{"dtype":"DT_INT32","tensorShape":{"dim":[{"size":"3"}]}}}}},
          {"name":"StatefulPartitionedCall/Generator/sequential_15/BasicShuffleUnitV2_7/split/split_dim","op":"Const","attr":{"value":{"tensor":{"dtype":"DT_INT32","tensorShape":{}}},"dtype":{"type":"DT_INT32"}}},
          {"name":"StatefulPartitionedCall/Generator/sequential_15/BasicShuffleUnitV2_6/Reshape/shape/0","op":"Const","attr":{"dtype":{"type":"DT_INT32"},"value":{"tensor":{"dtype":"DT_INT32","tensorShape":{}}}}},
          {"name":"StatefulPartitionedCall/Generator/sequential_15/BasicShuffleUnitV2_6/Reshape/shape/3","op":"Const","attr":{"value":{"tensor":{"dtype":"DT_INT32","tensorShape":{}}},"dtype":{"type":"DT_INT32"}}},
          {"name":"StatefulPartitionedCall/Generator/sequential_15/BasicShuffleUnitV2_6/Reshape/shape/4","op":"Const","attr":{"value":{"tensor":{"dtype":"DT_INT32","tensorShape":{}}},"dtype":{"type":"DT_INT32"}}},
          {"name":"StatefulPartitionedCall/Generator/sequential_15/BasicShuffleUnitV2_6/transpose/perm","op":"Const","attr":{"value":{"tensor":{"dtype":"DT_INT32","tensorShape":{"dim":[{"size":"5"}]}}},"dtype":{"type":"DT_INT32"}}},
          {"name":"StatefulPartitionedCall/Generator/sequential_15/BasicShuffleUnitV2_6/Reshape_1/shape/0","op":"Const","attr":{"dtype":{"type":"DT_INT32"},"value":{"tensor":{"dtype":"DT_INT32","tensorShape":{}}}}},
          {"name":"StatefulPartitionedCall/Generator/sequential_15/BasicShuffleUnitV2_6/strided_slice/stack","op":"Const","attr":{"dtype":{"type":"DT_INT32"},"value":{"tensor":{"dtype":"DT_INT32","tensorShape":{"dim":[{"size":"1"}]}}}}},
          {"name":"StatefulPartitionedCall/Generator/sequential_15/BasicShuffleUnitV2_6/strided_slice/stack_1","op":"Const","attr":{"value":{"tensor":{"dtype":"DT_INT32","tensorShape":{"dim":[{"size":"1"}]}}},"dtype":{"type":"DT_INT32"}}},
          {"name":"StatefulPartitionedCall/Generator/sequential_15/BasicShuffleUnitV2_6/strided_slice/stack_2","op":"Const","attr":{"value":{"tensor":{"dtype":"DT_INT32","tensorShape":{"dim":[{"size":"1"}]}}},"dtype":{"type":"DT_INT32"}}},
          {"name":"StatefulPartitionedCall/Generator/sequential_15/BasicShuffleUnitV2_6/sequential_13/instance_normalization_29/Mean/reduction_indices","op":"Const","attr":{"dtype":{"type":"DT_INT32"},"value":{"tensor":{"dtype":"DT_INT32","tensorShape":{"dim":[{"size":"3"}]}}}}},
          {"name":"StatefulPartitionedCall/Generator/sequential_15/BasicShuffleUnitV2_6/sequential_13/instance_normalization_28/Mean/reduction_indices","op":"Const","attr":{"value":{"tensor":{"dtype":"DT_INT32","tensorShape":{"dim":[{"size":"3"}]}}},"dtype":{"type":"DT_INT32"}}},
          {"name":"StatefulPartitionedCall/Generator/sequential_15/BasicShuffleUnitV2_6/sequential_13/instance_normalization_27/Mean/reduction_indices","op":"Const","attr":{"dtype":{"type":"DT_INT32"},"value":{"tensor":{"dtype":"DT_INT32","tensorShape":{"dim":[{"size":"3"}]}}}}},
          {"name":"StatefulPartitionedCall/Generator/sequential_15/BasicShuffleUnitV2_6/split/split_dim","op":"Const","attr":{"value":{"tensor":{"dtype":"DT_INT32","tensorShape":{}}},"dtype":{"type":"DT_INT32"}}},
          {"name":"StatefulPartitionedCall/Generator/sequential_15/BasicShuffleUnitV2_5/Reshape/shape/0","op":"Const","attr":{"dtype":{"type":"DT_INT32"},"value":{"tensor":{"dtype":"DT_INT32","tensorShape":{}}}}},
          {"name":"StatefulPartitionedCall/Generator/sequential_15/BasicShuffleUnitV2_5/Reshape/shape/3","op":"Const","attr":{"dtype":{"type":"DT_INT32"},"value":{"tensor":{"dtype":"DT_INT32","tensorShape":{}}}}},
          {"name":"StatefulPartitionedCall/Generator/sequential_15/BasicShuffleUnitV2_5/Reshape/shape/4","op":"Const","attr":{"value":{"tensor":{"dtype":"DT_INT32","tensorShape":{}}},"dtype":{"type":"DT_INT32"}}},
          {"name":"StatefulPartitionedCall/Generator/sequential_15/BasicShuffleUnitV2_5/transpose/perm","op":"Const","attr":{"dtype":{"type":"DT_INT32"},"value":{"tensor":{"dtype":"DT_INT32","tensorShape":{"dim":[{"size":"5"}]}}}}},
          {"name":"StatefulPartitionedCall/Generator/sequential_15/BasicShuffleUnitV2_5/Reshape_1/shape/0","op":"Const","attr":{"dtype":{"type":"DT_INT32"},"value":{"tensor":{"dtype":"DT_INT32","tensorShape":{}}}}},
          {"name":"StatefulPartitionedCall/Generator/sequential_15/BasicShuffleUnitV2_5/strided_slice/stack","op":"Const","attr":{"value":{"tensor":{"dtype":"DT_INT32","tensorShape":{"dim":[{"size":"1"}]}}},"dtype":{"type":"DT_INT32"}}},
          {"name":"StatefulPartitionedCall/Generator/sequential_15/BasicShuffleUnitV2_5/strided_slice/stack_1","op":"Const","attr":{"dtype":{"type":"DT_INT32"},"value":{"tensor":{"dtype":"DT_INT32","tensorShape":{"dim":[{"size":"1"}]}}}}},
          {"name":"StatefulPartitionedCall/Generator/sequential_15/BasicShuffleUnitV2_5/strided_slice/stack_2","op":"Const","attr":{"value":{"tensor":{"dtype":"DT_INT32","tensorShape":{"dim":[{"size":"1"}]}}},"dtype":{"type":"DT_INT32"}}},
          {"name":"StatefulPartitionedCall/Generator/sequential_15/BasicShuffleUnitV2_5/sequential_12/instance_normalization_26/Mean/reduction_indices","op":"Const","attr":{"value":{"tensor":{"dtype":"DT_INT32","tensorShape":{"dim":[{"size":"3"}]}}},"dtype":{"type":"DT_INT32"}}},
          {"name":"StatefulPartitionedCall/Generator/sequential_15/BasicShuffleUnitV2_5/sequential_12/instance_normalization_25/Mean/reduction_indices","op":"Const","attr":{"value":{"tensor":{"dtype":"DT_INT32","tensorShape":{"dim":[{"size":"3"}]}}},"dtype":{"type":"DT_INT32"}}},
          {"name":"StatefulPartitionedCall/Generator/sequential_15/BasicShuffleUnitV2_5/sequential_12/instance_normalization_24/Mean/reduction_indices","op":"Const","attr":{"dtype":{"type":"DT_INT32"},"value":{"tensor":{"dtype":"DT_INT32","tensorShape":{"dim":[{"size":"3"}]}}}}},
          {"name":"StatefulPartitionedCall/Generator/sequential_15/BasicShuffleUnitV2_5/split/split_dim","op":"Const","attr":{"value":{"tensor":{"dtype":"DT_INT32","tensorShape":{}}},"dtype":{"type":"DT_INT32"}}},
          {"name":"StatefulPartitionedCall/Generator/sequential_15/BasicShuffleUnitV2_4/Reshape/shape/0","op":"Const","attr":{"dtype":{"type":"DT_INT32"},"value":{"tensor":{"dtype":"DT_INT32","tensorShape":{}}}}},
          {"name":"StatefulPartitionedCall/Generator/sequential_15/BasicShuffleUnitV2_4/Reshape/shape/3","op":"Const","attr":{"value":{"tensor":{"dtype":"DT_INT32","tensorShape":{}}},"dtype":{"type":"DT_INT32"}}},
          {"name":"StatefulPartitionedCall/Generator/sequential_15/BasicShuffleUnitV2_4/Reshape/shape/4","op":"Const","attr":{"dtype":{"type":"DT_INT32"},"value":{"tensor":{"dtype":"DT_INT32","tensorShape":{}}}}},
          {"name":"StatefulPartitionedCall/Generator/sequential_15/BasicShuffleUnitV2_4/transpose/perm","op":"Const","attr":{"dtype":{"type":"DT_INT32"},"value":{"tensor":{"dtype":"DT_INT32","tensorShape":{"dim":[{"size":"5"}]}}}}},
          {"name":"StatefulPartitionedCall/Generator/sequential_15/BasicShuffleUnitV2_4/Reshape_1/shape/0","op":"Const","attr":{"value":{"tensor":{"dtype":"DT_INT32","tensorShape":{}}},"dtype":{"type":"DT_INT32"}}},
          {"name":"StatefulPartitionedCall/Generator/sequential_15/BasicShuffleUnitV2_4/strided_slice/stack","op":"Const","attr":{"dtype":{"type":"DT_INT32"},"value":{"tensor":{"dtype":"DT_INT32","tensorShape":{"dim":[{"size":"1"}]}}}}},
          {"name":"StatefulPartitionedCall/Generator/sequential_15/BasicShuffleUnitV2_4/strided_slice/stack_1","op":"Const","attr":{"value":{"tensor":{"dtype":"DT_INT32","tensorShape":{"dim":[{"size":"1"}]}}},"dtype":{"type":"DT_INT32"}}},
          {"name":"StatefulPartitionedCall/Generator/sequential_15/BasicShuffleUnitV2_4/strided_slice/stack_2","op":"Const","attr":{"value":{"tensor":{"dtype":"DT_INT32","tensorShape":{"dim":[{"size":"1"}]}}},"dtype":{"type":"DT_INT32"}}},
          {"name":"StatefulPartitionedCall/Generator/sequential_15/BasicShuffleUnitV2_4/sequential_11/instance_normalization_23/Mean/reduction_indices","op":"Const","attr":{"value":{"tensor":{"dtype":"DT_INT32","tensorShape":{"dim":[{"size":"3"}]}}},"dtype":{"type":"DT_INT32"}}},
          {"name":"StatefulPartitionedCall/Generator/sequential_15/BasicShuffleUnitV2_4/sequential_11/instance_normalization_22/Mean/reduction_indices","op":"Const","attr":{"dtype":{"type":"DT_INT32"},"value":{"tensor":{"dtype":"DT_INT32","tensorShape":{"dim":[{"size":"3"}]}}}}},
          {"name":"StatefulPartitionedCall/Generator/sequential_15/BasicShuffleUnitV2_4/sequential_11/instance_normalization_21/Mean/reduction_indices","op":"Const","attr":{"dtype":{"type":"DT_INT32"},"value":{"tensor":{"dtype":"DT_INT32","tensorShape":{"dim":[{"size":"3"}]}}}}},
          {"name":"StatefulPartitionedCall/Generator/sequential_15/BasicShuffleUnitV2_4/split/split_dim","op":"Const","attr":{"dtype":{"type":"DT_INT32"},"value":{"tensor":{"dtype":"DT_INT32","tensorShape":{}}}}},
          {"name":"StatefulPartitionedCall/Generator/sequential_15/BasicShuffleUnitV2_3/Reshape/shape/0","op":"Const","attr":{"dtype":{"type":"DT_INT32"},"value":{"tensor":{"dtype":"DT_INT32","tensorShape":{}}}}},
          {"name":"StatefulPartitionedCall/Generator/sequential_15/BasicShuffleUnitV2_3/Reshape/shape/3","op":"Const","attr":{"dtype":{"type":"DT_INT32"},"value":{"tensor":{"dtype":"DT_INT32","tensorShape":{}}}}},
          {"name":"StatefulPartitionedCall/Generator/sequential_15/BasicShuffleUnitV2_3/Reshape/shape/4","op":"Const","attr":{"dtype":{"type":"DT_INT32"},"value":{"tensor":{"dtype":"DT_INT32","tensorShape":{}}}}},
          {"name":"StatefulPartitionedCall/Generator/sequential_15/BasicShuffleUnitV2_3/transpose/perm","op":"Const","attr":{"value":{"tensor":{"dtype":"DT_INT32","tensorShape":{"dim":[{"size":"5"}]}}},"dtype":{"type":"DT_INT32"}}},
          {"name":"StatefulPartitionedCall/Generator/sequential_15/BasicShuffleUnitV2_3/Reshape_1/shape/0","op":"Const","attr":{"value":{"tensor":{"dtype":"DT_INT32","tensorShape":{}}},"dtype":{"type":"DT_INT32"}}},
          {"name":"StatefulPartitionedCall/Generator/sequential_15/BasicShuffleUnitV2_3/strided_slice/stack","op":"Const","attr":{"value":{"tensor":{"dtype":"DT_INT32","tensorShape":{"dim":[{"size":"1"}]}}},"dtype":{"type":"DT_INT32"}}},
          {"name":"StatefulPartitionedCall/Generator/sequential_15/BasicShuffleUnitV2_3/strided_slice/stack_1","op":"Const","attr":{"value":{"tensor":{"dtype":"DT_INT32","tensorShape":{"dim":[{"size":"1"}]}}},"dtype":{"type":"DT_INT32"}}},
          {"name":"StatefulPartitionedCall/Generator/sequential_15/BasicShuffleUnitV2_3/strided_slice/stack_2","op":"Const","attr":{"dtype":{"type":"DT_INT32"},"value":{"tensor":{"dtype":"DT_INT32","tensorShape":{"dim":[{"size":"1"}]}}}}},
          {"name":"StatefulPartitionedCall/Generator/sequential_15/BasicShuffleUnitV2_3/sequential_10/instance_normalization_20/Mean/reduction_indices","op":"Const","attr":{"value":{"tensor":{"dtype":"DT_INT32","tensorShape":{"dim":[{"size":"3"}]}}},"dtype":{"type":"DT_INT32"}}},
          {"name":"StatefulPartitionedCall/Generator/sequential_15/BasicShuffleUnitV2_3/sequential_10/instance_normalization_19/Mean/reduction_indices","op":"Const","attr":{"dtype":{"type":"DT_INT32"},"value":{"tensor":{"dtype":"DT_INT32","tensorShape":{"dim":[{"size":"3"}]}}}}},
          {"name":"StatefulPartitionedCall/Generator/sequential_15/BasicShuffleUnitV2_3/sequential_10/instance_normalization_18/Mean/reduction_indices","op":"Const","attr":{"dtype":{"type":"DT_INT32"},"value":{"tensor":{"dtype":"DT_INT32","tensorShape":{"dim":[{"size":"3"}]}}}}},
          {"name":"StatefulPartitionedCall/Generator/sequential_15/BasicShuffleUnitV2_3/split/split_dim","op":"Const","attr":{"dtype":{"type":"DT_INT32"},"value":{"tensor":{"dtype":"DT_INT32","tensorShape":{}}}}},
          {"name":"StatefulPartitionedCall/Generator/sequential_15/BasicShuffleUnitV2_2/Reshape/shape/0","op":"Const","attr":{"value":{"tensor":{"dtype":"DT_INT32","tensorShape":{}}},"dtype":{"type":"DT_INT32"}}},
          {"name":"StatefulPartitionedCall/Generator/sequential_15/BasicShuffleUnitV2_2/Reshape/shape/3","op":"Const","attr":{"value":{"tensor":{"dtype":"DT_INT32","tensorShape":{}}},"dtype":{"type":"DT_INT32"}}},
          {"name":"StatefulPartitionedCall/Generator/sequential_15/BasicShuffleUnitV2_2/Reshape/shape/4","op":"Const","attr":{"value":{"tensor":{"dtype":"DT_INT32","tensorShape":{}}},"dtype":{"type":"DT_INT32"}}},
          {"name":"StatefulPartitionedCall/Generator/sequential_15/BasicShuffleUnitV2_2/transpose/perm","op":"Const","attr":{"dtype":{"type":"DT_INT32"},"value":{"tensor":{"dtype":"DT_INT32","tensorShape":{"dim":[{"size":"5"}]}}}}},
          {"name":"StatefulPartitionedCall/Generator/sequential_15/BasicShuffleUnitV2_2/Reshape_1/shape/0","op":"Const","attr":{"dtype":{"type":"DT_INT32"},"value":{"tensor":{"dtype":"DT_INT32","tensorShape":{}}}}},
          {"name":"StatefulPartitionedCall/Generator/sequential_15/BasicShuffleUnitV2_2/strided_slice/stack","op":"Const","attr":{"dtype":{"type":"DT_INT32"},"value":{"tensor":{"dtype":"DT_INT32","tensorShape":{"dim":[{"size":"1"}]}}}}},
          {"name":"StatefulPartitionedCall/Generator/sequential_15/BasicShuffleUnitV2_2/strided_slice/stack_1","op":"Const","attr":{"dtype":{"type":"DT_INT32"},"value":{"tensor":{"dtype":"DT_INT32","tensorShape":{"dim":[{"size":"1"}]}}}}},
          {"name":"StatefulPartitionedCall/Generator/sequential_15/BasicShuffleUnitV2_2/strided_slice/stack_2","op":"Const","attr":{"dtype":{"type":"DT_INT32"},"value":{"tensor":{"dtype":"DT_INT32","tensorShape":{"dim":[{"size":"1"}]}}}}},
          {"name":"StatefulPartitionedCall/Generator/sequential_15/BasicShuffleUnitV2_2/sequential_9/instance_normalization_17/Mean/reduction_indices","op":"Const","attr":{"dtype":{"type":"DT_INT32"},"value":{"tensor":{"dtype":"DT_INT32","tensorShape":{"dim":[{"size":"3"}]}}}}},
          {"name":"StatefulPartitionedCall/Generator/sequential_15/BasicShuffleUnitV2_2/sequential_9/instance_normalization_16/Mean/reduction_indices","op":"Const","attr":{"value":{"tensor":{"dtype":"DT_INT32","tensorShape":{"dim":[{"size":"3"}]}}},"dtype":{"type":"DT_INT32"}}},
          {"name":"StatefulPartitionedCall/Generator/sequential_15/BasicShuffleUnitV2_2/sequential_9/instance_normalization_15/Mean/reduction_indices","op":"Const","attr":{"value":{"tensor":{"dtype":"DT_INT32","tensorShape":{"dim":[{"size":"3"}]}}},"dtype":{"type":"DT_INT32"}}},
          {"name":"StatefulPartitionedCall/Generator/sequential_15/BasicShuffleUnitV2_2/split/split_dim","op":"Const","attr":{"dtype":{"type":"DT_INT32"},"value":{"tensor":{"dtype":"DT_INT32","tensorShape":{}}}}},
          {"name":"StatefulPartitionedCall/Generator/sequential_15/BasicShuffleUnitV2_1/Reshape/shape/0","op":"Const","attr":{"dtype":{"type":"DT_INT32"},"value":{"tensor":{"dtype":"DT_INT32","tensorShape":{}}}}},
          {"name":"StatefulPartitionedCall/Generator/sequential_15/BasicShuffleUnitV2_1/Reshape/shape/3","op":"Const","attr":{"value":{"tensor":{"dtype":"DT_INT32","tensorShape":{}}},"dtype":{"type":"DT_INT32"}}},
          {"name":"StatefulPartitionedCall/Generator/sequential_15/BasicShuffleUnitV2_1/Reshape/shape/4","op":"Const","attr":{"value":{"tensor":{"dtype":"DT_INT32","tensorShape":{}}},"dtype":{"type":"DT_INT32"}}},
          {"name":"StatefulPartitionedCall/Generator/sequential_15/BasicShuffleUnitV2_1/transpose/perm","op":"Const","attr":{"dtype":{"type":"DT_INT32"},"value":{"tensor":{"dtype":"DT_INT32","tensorShape":{"dim":[{"size":"5"}]}}}}},
          {"name":"StatefulPartitionedCall/Generator/sequential_15/BasicShuffleUnitV2_1/Reshape_1/shape/0","op":"Const","attr":{"value":{"tensor":{"dtype":"DT_INT32","tensorShape":{}}},"dtype":{"type":"DT_INT32"}}},
          {"name":"StatefulPartitionedCall/Generator/sequential_15/BasicShuffleUnitV2_1/strided_slice/stack","op":"Const","attr":{"dtype":{"type":"DT_INT32"},"value":{"tensor":{"dtype":"DT_INT32","tensorShape":{"dim":[{"size":"1"}]}}}}},
          {"name":"StatefulPartitionedCall/Generator/sequential_15/BasicShuffleUnitV2_1/strided_slice/stack_1","op":"Const","attr":{"dtype":{"type":"DT_INT32"},"value":{"tensor":{"dtype":"DT_INT32","tensorShape":{"dim":[{"size":"1"}]}}}}},
          {"name":"StatefulPartitionedCall/Generator/sequential_15/BasicShuffleUnitV2_1/strided_slice/stack_2","op":"Const","attr":{"value":{"tensor":{"dtype":"DT_INT32","tensorShape":{"dim":[{"size":"1"}]}}},"dtype":{"type":"DT_INT32"}}},
          {"name":"StatefulPartitionedCall/Generator/sequential_15/BasicShuffleUnitV2_1/sequential_8/instance_normalization_14/Mean/reduction_indices","op":"Const","attr":{"dtype":{"type":"DT_INT32"},"value":{"tensor":{"dtype":"DT_INT32","tensorShape":{"dim":[{"size":"3"}]}}}}},
          {"name":"StatefulPartitionedCall/Generator/sequential_15/BasicShuffleUnitV2_1/sequential_8/instance_normalization_13/Mean/reduction_indices","op":"Const","attr":{"dtype":{"type":"DT_INT32"},"value":{"tensor":{"dtype":"DT_INT32","tensorShape":{"dim":[{"size":"3"}]}}}}},
          {"name":"StatefulPartitionedCall/Generator/sequential_15/BasicShuffleUnitV2_1/sequential_8/instance_normalization_12/Mean/reduction_indices","op":"Const","attr":{"dtype":{"type":"DT_INT32"},"value":{"tensor":{"dtype":"DT_INT32","tensorShape":{"dim":[{"size":"3"}]}}}}},
          {"name":"StatefulPartitionedCall/Generator/sequential_15/BasicShuffleUnitV2_1/split/split_dim","op":"Const","attr":{"dtype":{"type":"DT_INT32"},"value":{"tensor":{"dtype":"DT_INT32","tensorShape":{}}}}},
          {"name":"StatefulPartitionedCall/Generator/sequential_15/BasicShuffleUnitV2/Reshape/shape/0","op":"Const","attr":{"dtype":{"type":"DT_INT32"},"value":{"tensor":{"dtype":"DT_INT32","tensorShape":{}}}}},
          {"name":"StatefulPartitionedCall/Generator/sequential_15/BasicShuffleUnitV2/Reshape/shape/3","op":"Const","attr":{"dtype":{"type":"DT_INT32"},"value":{"tensor":{"dtype":"DT_INT32","tensorShape":{}}}}},
          {"name":"StatefulPartitionedCall/Generator/sequential_15/BasicShuffleUnitV2/Reshape/shape/4","op":"Const","attr":{"dtype":{"type":"DT_INT32"},"value":{"tensor":{"dtype":"DT_INT32","tensorShape":{}}}}},
          {"name":"StatefulPartitionedCall/Generator/sequential_15/BasicShuffleUnitV2/transpose/perm","op":"Const","attr":{"value":{"tensor":{"dtype":"DT_INT32","tensorShape":{"dim":[{"size":"5"}]}}},"dtype":{"type":"DT_INT32"}}},
          {"name":"StatefulPartitionedCall/Generator/sequential_15/BasicShuffleUnitV2/Reshape_1/shape/0","op":"Const","attr":{"value":{"tensor":{"dtype":"DT_INT32","tensorShape":{}}},"dtype":{"type":"DT_INT32"}}},
          {"name":"StatefulPartitionedCall/Generator/sequential_15/BasicShuffleUnitV2/strided_slice/stack","op":"Const","attr":{"dtype":{"type":"DT_INT32"},"value":{"tensor":{"dtype":"DT_INT32","tensorShape":{"dim":[{"size":"1"}]}}}}},
          {"name":"StatefulPartitionedCall/Generator/sequential_15/BasicShuffleUnitV2/strided_slice/stack_1","op":"Const","attr":{"value":{"tensor":{"dtype":"DT_INT32","tensorShape":{"dim":[{"size":"1"}]}}},"dtype":{"type":"DT_INT32"}}},
          {"name":"StatefulPartitionedCall/Generator/sequential_15/BasicShuffleUnitV2/strided_slice/stack_2","op":"Const","attr":{"value":{"tensor":{"dtype":"DT_INT32","tensorShape":{"dim":[{"size":"1"}]}}},"dtype":{"type":"DT_INT32"}}},
          {"name":"StatefulPartitionedCall/Generator/sequential_15/BasicShuffleUnitV2/sequential_7/instance_normalization_11/Mean/reduction_indices","op":"Const","attr":{"dtype":{"type":"DT_INT32"},"value":{"tensor":{"dtype":"DT_INT32","tensorShape":{"dim":[{"size":"3"}]}}}}},
          {"name":"StatefulPartitionedCall/Generator/sequential_15/BasicShuffleUnitV2/sequential_7/instance_normalization_10/Mean/reduction_indices","op":"Const","attr":{"dtype":{"type":"DT_INT32"},"value":{"tensor":{"dtype":"DT_INT32","tensorShape":{"dim":[{"size":"3"}]}}}}},
          {"name":"StatefulPartitionedCall/Generator/sequential_15/BasicShuffleUnitV2/sequential_7/instance_normalization_9/Mean/reduction_indices","op":"Const","attr":{"value":{"tensor":{"dtype":"DT_INT32","tensorShape":{"dim":[{"size":"3"}]}}},"dtype":{"type":"DT_INT32"}}},
          {"name":"StatefulPartitionedCall/Generator/sequential_15/BasicShuffleUnitV2/split/split_dim","op":"Const","attr":{"value":{"tensor":{"dtype":"DT_INT32","tensorShape":{}}},"dtype":{"type":"DT_INT32"}}},
          {"name":"StatefulPartitionedCall/Generator/DownShuffleUnitV2_1/Reshape/shape/0","op":"Const","attr":{"value":{"tensor":{"dtype":"DT_INT32","tensorShape":{}}},"dtype":{"type":"DT_INT32"}}},
          {"name":"StatefulPartitionedCall/Generator/DownShuffleUnitV2_1/Reshape/shape/3","op":"Const","attr":{"value":{"tensor":{"dtype":"DT_INT32","tensorShape":{}}},"dtype":{"type":"DT_INT32"}}},
          {"name":"StatefulPartitionedCall/Generator/DownShuffleUnitV2_1/Reshape/shape/4","op":"Const","attr":{"dtype":{"type":"DT_INT32"},"value":{"tensor":{"dtype":"DT_INT32","tensorShape":{}}}}},
          {"name":"StatefulPartitionedCall/Generator/DownShuffleUnitV2_1/transpose/perm","op":"Const","attr":{"dtype":{"type":"DT_INT32"},"value":{"tensor":{"dtype":"DT_INT32","tensorShape":{"dim":[{"size":"5"}]}}}}},
          {"name":"StatefulPartitionedCall/Generator/DownShuffleUnitV2_1/Reshape_1/shape/0","op":"Const","attr":{"dtype":{"type":"DT_INT32"},"value":{"tensor":{"dtype":"DT_INT32","tensorShape":{}}}}},
          {"name":"StatefulPartitionedCall/Generator/DownShuffleUnitV2_1/strided_slice/stack","op":"Const","attr":{"dtype":{"type":"DT_INT32"},"value":{"tensor":{"dtype":"DT_INT32","tensorShape":{"dim":[{"size":"1"}]}}}}},
          {"name":"StatefulPartitionedCall/Generator/DownShuffleUnitV2_1/strided_slice/stack_1","op":"Const","attr":{"value":{"tensor":{"dtype":"DT_INT32","tensorShape":{"dim":[{"size":"1"}]}}},"dtype":{"type":"DT_INT32"}}},
          {"name":"StatefulPartitionedCall/Generator/DownShuffleUnitV2_1/strided_slice/stack_2","op":"Const","attr":{"value":{"tensor":{"dtype":"DT_INT32","tensorShape":{"dim":[{"size":"1"}]}}},"dtype":{"type":"DT_INT32"}}},
          {"name":"StatefulPartitionedCall/Generator/DownShuffleUnitV2_1/sequential_6/instance_normalization_8/Mean/reduction_indices","op":"Const","attr":{"value":{"tensor":{"dtype":"DT_INT32","tensorShape":{"dim":[{"size":"3"}]}}},"dtype":{"type":"DT_INT32"}}},
          {"name":"StatefulPartitionedCall/Generator/DownShuffleUnitV2_1/sequential_5/instance_normalization_7/Mean/reduction_indices","op":"Const","attr":{"dtype":{"type":"DT_INT32"},"value":{"tensor":{"dtype":"DT_INT32","tensorShape":{"dim":[{"size":"3"}]}}}}},
          {"name":"StatefulPartitionedCall/Generator/DownShuffleUnitV2_1/sequential_5/depthwise_conv2d_3/depthwise/ReadVariableOp","op":"Const","attr":{"dtype":{"type":"DT_FLOAT"},"value":{"tensor":{"dtype":"DT_FLOAT","tensorShape":{"dim":[{"size":"3"},{"size":"3"},{"size":"192"},{"size":"1"}]}}}}},
          {"name":"StatefulPartitionedCall/Generator/DownShuffleUnitV2_1/sequential_5/instance_normalization_7/reduce_std/reduce_variance/Mean/reduction_indices","op":"Const","attr":{"value":{"tensor":{"dtype":"DT_INT32","tensorShape":{"dim":[{"size":"3"}]}}},"dtype":{"type":"DT_INT32"}}},
          {"name":"StatefulPartitionedCall/Generator/DownShuffleUnitV2_1/sequential_5/instance_normalization_7/reduce_std/reduce_variance/Mean_1/reduction_indices","op":"Const","attr":{"dtype":{"type":"DT_INT32"},"value":{"tensor":{"dtype":"DT_INT32","tensorShape":{"dim":[{"size":"3"}]}}}}},
          {"name":"StatefulPartitionedCall/Generator/DownShuffleUnitV2_1/sequential_5/instance_normalization_7/add/y","op":"Const","attr":{"value":{"tensor":{"dtype":"DT_FLOAT","tensorShape":{}}},"dtype":{"type":"DT_FLOAT"}}},
          {"name":"StatefulPartitionedCall/Generator/DownShuffleUnitV2_1/sequential_5/instance_normalization_7/Reshape","op":"Const","attr":{"value":{"tensor":{"dtype":"DT_FLOAT","tensorShape":{"dim":[{"size":"1"},{"size":"1"},{"size":"1"},{"size":"1"}]}}},"dtype":{"type":"DT_FLOAT"}}},
          {"name":"StatefulPartitionedCall/Generator/DownShuffleUnitV2_1/sequential_5/instance_normalization_7/Reshape_1","op":"Const","attr":{"dtype":{"type":"DT_FLOAT"},"value":{"tensor":{"dtype":"DT_FLOAT","tensorShape":{"dim":[{"size":"1"},{"size":"1"},{"size":"1"},{"size":"1"}]}}}}},
          {"name":"StatefulPartitionedCall/Generator/DownShuffleUnitV2_1/sequential_5/conv2d_6/Conv2D/ReadVariableOp","op":"Const","attr":{"dtype":{"type":"DT_FLOAT"},"value":{"tensor":{"dtype":"DT_FLOAT","tensorShape":{"dim":[{"size":"1"},{"size":"1"},{"size":"192"},{"size":"192"}]}}}}},
          {"name":"StatefulPartitionedCall/Generator/DownShuffleUnitV2_1/sequential_4/instance_normalization_6/Mean/reduction_indices","op":"Const","attr":{"dtype":{"type":"DT_INT32"},"value":{"tensor":{"dtype":"DT_INT32","tensorShape":{"dim":[{"size":"3"}]}}}}},
          {"name":"StatefulPartitionedCall/Generator/DownShuffleUnitV2_1/sequential_4/instance_normalization_5/Mean/reduction_indices","op":"Const","attr":{"value":{"tensor":{"dtype":"DT_INT32","tensorShape":{"dim":[{"size":"3"}]}}},"dtype":{"type":"DT_INT32"}}},
          {"name":"StatefulPartitionedCall/Generator/DownShuffleUnitV2/Reshape/shape/0","op":"Const","attr":{"value":{"tensor":{"dtype":"DT_INT32","tensorShape":{}}},"dtype":{"type":"DT_INT32"}}},
          {"name":"StatefulPartitionedCall/Generator/DownShuffleUnitV2/Reshape/shape/3","op":"Const","attr":{"dtype":{"type":"DT_INT32"},"value":{"tensor":{"dtype":"DT_INT32","tensorShape":{}}}}},
          {"name":"StatefulPartitionedCall/Generator/DownShuffleUnitV2/Reshape/shape/4","op":"Const","attr":{"dtype":{"type":"DT_INT32"},"value":{"tensor":{"dtype":"DT_INT32","tensorShape":{}}}}},
          {"name":"StatefulPartitionedCall/Generator/DownShuffleUnitV2/transpose/perm","op":"Const","attr":{"dtype":{"type":"DT_INT32"},"value":{"tensor":{"dtype":"DT_INT32","tensorShape":{"dim":[{"size":"5"}]}}}}},
          {"name":"StatefulPartitionedCall/Generator/DownShuffleUnitV2/Reshape_1/shape/0","op":"Const","attr":{"dtype":{"type":"DT_INT32"},"value":{"tensor":{"dtype":"DT_INT32","tensorShape":{}}}}},
          {"name":"StatefulPartitionedCall/Generator/DownShuffleUnitV2/strided_slice/stack","op":"Const","attr":{"value":{"tensor":{"dtype":"DT_INT32","tensorShape":{"dim":[{"size":"1"}]}}},"dtype":{"type":"DT_INT32"}}},
          {"name":"StatefulPartitionedCall/Generator/DownShuffleUnitV2/strided_slice/stack_1","op":"Const","attr":{"dtype":{"type":"DT_INT32"},"value":{"tensor":{"dtype":"DT_INT32","tensorShape":{"dim":[{"size":"1"}]}}}}},
          {"name":"StatefulPartitionedCall/Generator/DownShuffleUnitV2/strided_slice/stack_2","op":"Const","attr":{"dtype":{"type":"DT_INT32"},"value":{"tensor":{"dtype":"DT_INT32","tensorShape":{"dim":[{"size":"1"}]}}}}},
          {"name":"StatefulPartitionedCall/Generator/DownShuffleUnitV2/sequential_3/instance_normalization_4/Mean/reduction_indices","op":"Const","attr":{"value":{"tensor":{"dtype":"DT_INT32","tensorShape":{"dim":[{"size":"3"}]}}},"dtype":{"type":"DT_INT32"}}},
          {"name":"StatefulPartitionedCall/Generator/DownShuffleUnitV2/sequential_2/instance_normalization_3/Mean/reduction_indices","op":"Const","attr":{"value":{"tensor":{"dtype":"DT_INT32","tensorShape":{"dim":[{"size":"3"}]}}},"dtype":{"type":"DT_INT32"}}},
          {"name":"StatefulPartitionedCall/Generator/DownShuffleUnitV2/sequential_2/depthwise_conv2d_1/depthwise/ReadVariableOp","op":"Const","attr":{"dtype":{"type":"DT_FLOAT"},"value":{"tensor":{"dtype":"DT_FLOAT","tensorShape":{"dim":[{"size":"3"},{"size":"3"},{"size":"96"},{"size":"1"}]}}}}},
          {"name":"StatefulPartitionedCall/Generator/DownShuffleUnitV2/sequential_2/instance_normalization_3/reduce_std/reduce_variance/Mean/reduction_indices","op":"Const","attr":{"dtype":{"type":"DT_INT32"},"value":{"tensor":{"dtype":"DT_INT32","tensorShape":{"dim":[{"size":"3"}]}}}}},
          {"name":"StatefulPartitionedCall/Generator/DownShuffleUnitV2/sequential_2/instance_normalization_3/reduce_std/reduce_variance/Mean_1/reduction_indices","op":"Const","attr":{"dtype":{"type":"DT_INT32"},"value":{"tensor":{"dtype":"DT_INT32","tensorShape":{"dim":[{"size":"3"}]}}}}},
          {"name":"StatefulPartitionedCall/Generator/DownShuffleUnitV2/sequential_2/instance_normalization_3/add/y","op":"Const","attr":{"dtype":{"type":"DT_FLOAT"},"value":{"tensor":{"dtype":"DT_FLOAT","tensorShape":{}}}}},
          {"name":"StatefulPartitionedCall/Generator/DownShuffleUnitV2/sequential_2/instance_normalization_3/Reshape","op":"Const","attr":{"dtype":{"type":"DT_FLOAT"},"value":{"tensor":{"dtype":"DT_FLOAT","tensorShape":{"dim":[{"size":"1"},{"size":"1"},{"size":"1"},{"size":"1"}]}}}}},
          {"name":"StatefulPartitionedCall/Generator/DownShuffleUnitV2/sequential_2/instance_normalization_3/Reshape_1","op":"Const","attr":{"dtype":{"type":"DT_FLOAT"},"value":{"tensor":{"dtype":"DT_FLOAT","tensorShape":{"dim":[{"size":"1"},{"size":"1"},{"size":"1"},{"size":"1"}]}}}}},
          {"name":"StatefulPartitionedCall/Generator/DownShuffleUnitV2/sequential_2/conv2d_3/Conv2D/ReadVariableOp","op":"Const","attr":{"dtype":{"type":"DT_FLOAT"},"value":{"tensor":{"dtype":"DT_FLOAT","tensorShape":{"dim":[{"size":"1"},{"size":"1"},{"size":"96"},{"size":"96"}]}}}}},
          {"name":"StatefulPartitionedCall/Generator/DownShuffleUnitV2/sequential_1/instance_normalization_2/Mean/reduction_indices","op":"Const","attr":{"dtype":{"type":"DT_INT32"},"value":{"tensor":{"dtype":"DT_INT32","tensorShape":{"dim":[{"size":"3"}]}}}}},
          {"name":"StatefulPartitionedCall/Generator/DownShuffleUnitV2/sequential_1/instance_normalization_1/Mean/reduction_indices","op":"Const","attr":{"value":{"tensor":{"dtype":"DT_INT32","tensorShape":{"dim":[{"size":"3"}]}}},"dtype":{"type":"DT_INT32"}}},
          {"name":"StatefulPartitionedCall/Generator/FlatConv/sequential/instance_normalization/Mean/reduction_indices","op":"Const","attr":{"value":{"tensor":{"dtype":"DT_INT32","tensorShape":{"dim":[{"size":"3"}]}}},"dtype":{"type":"DT_INT32"}}},
          {"name":"StatefulPartitionedCall/Generator/FlatConv/sequential/zero_padding2d/Pad/paddings","op":"Const","attr":{"dtype":{"type":"DT_INT32"},"value":{"tensor":{"dtype":"DT_INT32","tensorShape":{"dim":[{"size":"4"},{"size":"2"}]}}}}},
          {"name":"StatefulPartitionedCall/Generator/FlatConv/sequential/conv2d/Conv2D/ReadVariableOp","op":"Const","attr":{"value":{"tensor":{"dtype":"DT_FLOAT","tensorShape":{"dim":[{"size":"5"},{"size":"5"},{"size":"3"},{"size":"96"}]}}},"dtype":{"type":"DT_FLOAT"}}},
          {"name":"StatefulPartitionedCall/Generator/FlatConv/sequential/conv2d/BiasAdd/ReadVariableOp","op":"Const","attr":{"value":{"tensor":{"dtype":"DT_FLOAT","tensorShape":{"dim":[{"size":"96"}]}}},"dtype":{"type":"DT_FLOAT"}}},
          {"name":"StatefulPartitionedCall/Generator/FlatConv/sequential/instance_normalization/reduce_std/reduce_variance/Mean/reduction_indices","op":"Const","attr":{"value":{"tensor":{"dtype":"DT_INT32","tensorShape":{"dim":[{"size":"3"}]}}},"dtype":{"type":"DT_INT32"}}},
          {"name":"StatefulPartitionedCall/Generator/FlatConv/sequential/instance_normalization/reduce_std/reduce_variance/Mean_1/reduction_indices","op":"Const","attr":{"dtype":{"type":"DT_INT32"},"value":{"tensor":{"dtype":"DT_INT32","tensorShape":{"dim":[{"size":"3"}]}}}}},
          {"name":"StatefulPartitionedCall/Generator/FlatConv/sequential/instance_normalization/add/y","op":"Const","attr":{"dtype":{"type":"DT_FLOAT"},"value":{"tensor":{"dtype":"DT_FLOAT","tensorShape":{}}}}},
          {"name":"StatefulPartitionedCall/Generator/FlatConv/sequential/instance_normalization/Reshape","op":"Const","attr":{"value":{"tensor":{"dtype":"DT_FLOAT","tensorShape":{"dim":[{"size":"1"},{"size":"1"},{"size":"1"},{"size":"1"}]}}},"dtype":{"type":"DT_FLOAT"}}},
          {"name":"StatefulPartitionedCall/Generator/FlatConv/sequential/instance_normalization/Reshape_1","op":"Const","attr":{"dtype":{"type":"DT_FLOAT"},"value":{"tensor":{"dtype":"DT_FLOAT","tensorShape":{"dim":[{"size":"1"},{"size":"1"},{"size":"1"},{"size":"1"}]}}}}},
          {"name":"StatefulPartitionedCall/Generator/DownShuffleUnitV2/sequential_1/conv2d_1/Conv2D/ReadVariableOp","op":"Const","attr":{"dtype":{"type":"DT_FLOAT"},"value":{"tensor":{"dtype":"DT_FLOAT","tensorShape":{"dim":[{"size":"1"},{"size":"1"},{"size":"96"},{"size":"96"}]}}}}},
          {"name":"StatefulPartitionedCall/Generator/DownShuffleUnitV2/sequential_1/instance_normalization_1/reduce_std/reduce_variance/Mean/reduction_indices","op":"Const","attr":{"dtype":{"type":"DT_INT32"},"value":{"tensor":{"dtype":"DT_INT32","tensorShape":{"dim":[{"size":"3"}]}}}}},
          {"name":"StatefulPartitionedCall/Generator/DownShuffleUnitV2/sequential_1/instance_normalization_1/reduce_std/reduce_variance/Mean_1/reduction_indices","op":"Const","attr":{"dtype":{"type":"DT_INT32"},"value":{"tensor":{"dtype":"DT_INT32","tensorShape":{"dim":[{"size":"3"}]}}}}},
          {"name":"StatefulPartitionedCall/Generator/DownShuffleUnitV2/sequential_1/instance_normalization_1/add/y","op":"Const","attr":{"value":{"tensor":{"dtype":"DT_FLOAT","tensorShape":{}}},"dtype":{"type":"DT_FLOAT"}}},
          {"name":"StatefulPartitionedCall/Generator/DownShuffleUnitV2/sequential_1/instance_normalization_1/Reshape","op":"Const","attr":{"dtype":{"type":"DT_FLOAT"},"value":{"tensor":{"dtype":"DT_FLOAT","tensorShape":{"dim":[{"size":"1"},{"size":"1"},{"size":"1"},{"size":"1"}]}}}}},
          {"name":"StatefulPartitionedCall/Generator/DownShuffleUnitV2/sequential_1/instance_normalization_1/Reshape_1","op":"Const","attr":{"dtype":{"type":"DT_FLOAT"},"value":{"tensor":{"dtype":"DT_FLOAT","tensorShape":{"dim":[{"size":"1"},{"size":"1"},{"size":"1"},{"size":"1"}]}}}}},
          {"name":"StatefulPartitionedCall/Generator/DownShuffleUnitV2/sequential_1/depthwise_conv2d/depthwise/ReadVariableOp","op":"Const","attr":{"dtype":{"type":"DT_FLOAT"},"value":{"tensor":{"dtype":"DT_FLOAT","tensorShape":{"dim":[{"size":"3"},{"size":"3"},{"size":"96"},{"size":"1"}]}}}}},
          {"name":"StatefulPartitionedCall/Generator/DownShuffleUnitV2/sequential_1/instance_normalization_2/reduce_std/reduce_variance/Mean/reduction_indices","op":"Const","attr":{"dtype":{"type":"DT_INT32"},"value":{"tensor":{"dtype":"DT_INT32","tensorShape":{"dim":[{"size":"3"}]}}}}},
          {"name":"StatefulPartitionedCall/Generator/DownShuffleUnitV2/sequential_1/instance_normalization_2/reduce_std/reduce_variance/Mean_1/reduction_indices","op":"Const","attr":{"dtype":{"type":"DT_INT32"},"value":{"tensor":{"dtype":"DT_INT32","tensorShape":{"dim":[{"size":"3"}]}}}}},
          {"name":"StatefulPartitionedCall/Generator/DownShuffleUnitV2/sequential_1/instance_normalization_2/add/y","op":"Const","attr":{"dtype":{"type":"DT_FLOAT"},"value":{"tensor":{"dtype":"DT_FLOAT","tensorShape":{}}}}},
          {"name":"StatefulPartitionedCall/Generator/DownShuffleUnitV2/sequential_1/instance_normalization_2/Reshape","op":"Const","attr":{"value":{"tensor":{"dtype":"DT_FLOAT","tensorShape":{"dim":[{"size":"1"},{"size":"1"},{"size":"1"},{"size":"1"}]}}},"dtype":{"type":"DT_FLOAT"}}},
          {"name":"StatefulPartitionedCall/Generator/DownShuffleUnitV2/sequential_1/instance_normalization_2/Reshape_1","op":"Const","attr":{"value":{"tensor":{"dtype":"DT_FLOAT","tensorShape":{"dim":[{"size":"1"},{"size":"1"},{"size":"1"},{"size":"1"}]}}},"dtype":{"type":"DT_FLOAT"}}},
          {"name":"StatefulPartitionedCall/Generator/DownShuffleUnitV2/sequential_1/conv2d_2/Conv2D/ReadVariableOp","op":"Const","attr":{"dtype":{"type":"DT_FLOAT"},"value":{"tensor":{"dtype":"DT_FLOAT","tensorShape":{"dim":[{"size":"1"},{"size":"1"},{"size":"96"},{"size":"96"}]}}}}},
          {"name":"StatefulPartitionedCall/Generator/DownShuffleUnitV2/concat/axis","op":"Const","attr":{"dtype":{"type":"DT_INT32"},"value":{"tensor":{"dtype":"DT_INT32","tensorShape":{}}}}},
          {"name":"StatefulPartitionedCall/Generator/DownShuffleUnitV2/sequential_3/instance_normalization_4/reduce_std/reduce_variance/Mean/reduction_indices","op":"Const","attr":{"dtype":{"type":"DT_INT32"},"value":{"tensor":{"dtype":"DT_INT32","tensorShape":{"dim":[{"size":"3"}]}}}}},
          {"name":"StatefulPartitionedCall/Generator/DownShuffleUnitV2/sequential_3/instance_normalization_4/reduce_std/reduce_variance/Mean_1/reduction_indices","op":"Const","attr":{"dtype":{"type":"DT_INT32"},"value":{"tensor":{"dtype":"DT_INT32","tensorShape":{"dim":[{"size":"3"}]}}}}},
          {"name":"StatefulPartitionedCall/Generator/DownShuffleUnitV2/sequential_3/instance_normalization_4/add/y","op":"Const","attr":{"dtype":{"type":"DT_FLOAT"},"value":{"tensor":{"dtype":"DT_FLOAT","tensorShape":{}}}}},
          {"name":"StatefulPartitionedCall/Generator/DownShuffleUnitV2/sequential_3/instance_normalization_4/Reshape","op":"Const","attr":{"dtype":{"type":"DT_FLOAT"},"value":{"tensor":{"dtype":"DT_FLOAT","tensorShape":{"dim":[{"size":"1"},{"size":"1"},{"size":"1"},{"size":"1"}]}}}}},
          {"name":"StatefulPartitionedCall/Generator/DownShuffleUnitV2/sequential_3/instance_normalization_4/Reshape_1","op":"Const","attr":{"dtype":{"type":"DT_FLOAT"},"value":{"tensor":{"dtype":"DT_FLOAT","tensorShape":{"dim":[{"size":"1"},{"size":"1"},{"size":"1"},{"size":"1"}]}}}}},
          {"name":"StatefulPartitionedCall/Generator/DownShuffleUnitV2/strided_slice_1/stack","op":"Const","attr":{"dtype":{"type":"DT_INT32"},"value":{"tensor":{"dtype":"DT_INT32","tensorShape":{"dim":[{"size":"1"}]}}}}},
          {"name":"StatefulPartitionedCall/Generator/DownShuffleUnitV2/strided_slice_1/stack_1","op":"Const","attr":{"dtype":{"type":"DT_INT32"},"value":{"tensor":{"dtype":"DT_INT32","tensorShape":{"dim":[{"size":"1"}]}}}}},
          {"name":"StatefulPartitionedCall/Generator/DownShuffleUnitV2/strided_slice_1/stack_2","op":"Const","attr":{"value":{"tensor":{"dtype":"DT_INT32","tensorShape":{"dim":[{"size":"1"}]}}},"dtype":{"type":"DT_INT32"}}},
          {"name":"StatefulPartitionedCall/Generator/DownShuffleUnitV2/Reshape_1/shape/3","op":"Const","attr":{"value":{"tensor":{"dtype":"DT_INT32","tensorShape":{}}},"dtype":{"type":"DT_INT32"}}},
          {"name":"StatefulPartitionedCall/Generator/DownShuffleUnitV2_1/sequential_4/conv2d_4/Conv2D/ReadVariableOp","op":"Const","attr":{"dtype":{"type":"DT_FLOAT"},"value":{"tensor":{"dtype":"DT_FLOAT","tensorShape":{"dim":[{"size":"1"},{"size":"1"},{"size":"192"},{"size":"192"}]}}}}},
          {"name":"StatefulPartitionedCall/Generator/DownShuffleUnitV2_1/sequential_4/instance_normalization_5/reduce_std/reduce_variance/Mean/reduction_indices","op":"Const","attr":{"value":{"tensor":{"dtype":"DT_INT32","tensorShape":{"dim":[{"size":"3"}]}}},"dtype":{"type":"DT_INT32"}}},
          {"name":"StatefulPartitionedCall/Generator/DownShuffleUnitV2_1/sequential_4/instance_normalization_5/reduce_std/reduce_variance/Mean_1/reduction_indices","op":"Const","attr":{"value":{"tensor":{"dtype":"DT_INT32","tensorShape":{"dim":[{"size":"3"}]}}},"dtype":{"type":"DT_INT32"}}},
          {"name":"StatefulPartitionedCall/Generator/DownShuffleUnitV2_1/sequential_4/instance_normalization_5/add/y","op":"Const","attr":{"dtype":{"type":"DT_FLOAT"},"value":{"tensor":{"dtype":"DT_FLOAT","tensorShape":{}}}}},
          {"name":"StatefulPartitionedCall/Generator/DownShuffleUnitV2_1/sequential_4/instance_normalization_5/Reshape","op":"Const","attr":{"dtype":{"type":"DT_FLOAT"},"value":{"tensor":{"dtype":"DT_FLOAT","tensorShape":{"dim":[{"size":"1"},{"size":"1"},{"size":"1"},{"size":"1"}]}}}}},
          {"name":"StatefulPartitionedCall/Generator/DownShuffleUnitV2_1/sequential_4/instance_normalization_5/Reshape_1","op":"Const","attr":{"value":{"tensor":{"dtype":"DT_FLOAT","tensorShape":{"dim":[{"size":"1"},{"size":"1"},{"size":"1"},{"size":"1"}]}}},"dtype":{"type":"DT_FLOAT"}}},
          {"name":"StatefulPartitionedCall/Generator/DownShuffleUnitV2_1/sequential_4/depthwise_conv2d_2/depthwise/ReadVariableOp","op":"Const","attr":{"value":{"tensor":{"dtype":"DT_FLOAT","tensorShape":{"dim":[{"size":"3"},{"size":"3"},{"size":"192"},{"size":"1"}]}}},"dtype":{"type":"DT_FLOAT"}}},
          {"name":"StatefulPartitionedCall/Generator/DownShuffleUnitV2_1/sequential_4/instance_normalization_6/reduce_std/reduce_variance/Mean/reduction_indices","op":"Const","attr":{"value":{"tensor":{"dtype":"DT_INT32","tensorShape":{"dim":[{"size":"3"}]}}},"dtype":{"type":"DT_INT32"}}},
          {"name":"StatefulPartitionedCall/Generator/DownShuffleUnitV2_1/sequential_4/instance_normalization_6/reduce_std/reduce_variance/Mean_1/reduction_indices","op":"Const","attr":{"value":{"tensor":{"dtype":"DT_INT32","tensorShape":{"dim":[{"size":"3"}]}}},"dtype":{"type":"DT_INT32"}}},
          {"name":"StatefulPartitionedCall/Generator/DownShuffleUnitV2_1/sequential_4/instance_normalization_6/add/y","op":"Const","attr":{"value":{"tensor":{"dtype":"DT_FLOAT","tensorShape":{}}},"dtype":{"type":"DT_FLOAT"}}},
          {"name":"StatefulPartitionedCall/Generator/DownShuffleUnitV2_1/sequential_4/instance_normalization_6/Reshape","op":"Const","attr":{"dtype":{"type":"DT_FLOAT"},"value":{"tensor":{"dtype":"DT_FLOAT","tensorShape":{"dim":[{"size":"1"},{"size":"1"},{"size":"1"},{"size":"1"}]}}}}},
          {"name":"StatefulPartitionedCall/Generator/DownShuffleUnitV2_1/sequential_4/instance_normalization_6/Reshape_1","op":"Const","attr":{"value":{"tensor":{"dtype":"DT_FLOAT","tensorShape":{"dim":[{"size":"1"},{"size":"1"},{"size":"1"},{"size":"1"}]}}},"dtype":{"type":"DT_FLOAT"}}},
          {"name":"StatefulPartitionedCall/Generator/DownShuffleUnitV2_1/sequential_4/conv2d_5/Conv2D/ReadVariableOp","op":"Const","attr":{"dtype":{"type":"DT_FLOAT"},"value":{"tensor":{"dtype":"DT_FLOAT","tensorShape":{"dim":[{"size":"1"},{"size":"1"},{"size":"192"},{"size":"192"}]}}}}},
          {"name":"StatefulPartitionedCall/Generator/DownShuffleUnitV2_1/concat/axis","op":"Const","attr":{"dtype":{"type":"DT_INT32"},"value":{"tensor":{"dtype":"DT_INT32","tensorShape":{}}}}},
          {"name":"StatefulPartitionedCall/Generator/DownShuffleUnitV2_1/sequential_6/instance_normalization_8/reduce_std/reduce_variance/Mean/reduction_indices","op":"Const","attr":{"value":{"tensor":{"dtype":"DT_INT32","tensorShape":{"dim":[{"size":"3"}]}}},"dtype":{"type":"DT_INT32"}}},
          {"name":"StatefulPartitionedCall/Generator/DownShuffleUnitV2_1/sequential_6/instance_normalization_8/reduce_std/reduce_variance/Mean_1/reduction_indices","op":"Const","attr":{"dtype":{"type":"DT_INT32"},"value":{"tensor":{"dtype":"DT_INT32","tensorShape":{"dim":[{"size":"3"}]}}}}},
          {"name":"StatefulPartitionedCall/Generator/DownShuffleUnitV2_1/sequential_6/instance_normalization_8/add/y","op":"Const","attr":{"dtype":{"type":"DT_FLOAT"},"value":{"tensor":{"dtype":"DT_FLOAT","tensorShape":{}}}}},
          {"name":"StatefulPartitionedCall/Generator/DownShuffleUnitV2_1/sequential_6/instance_normalization_8/Reshape","op":"Const","attr":{"value":{"tensor":{"dtype":"DT_FLOAT","tensorShape":{"dim":[{"size":"1"},{"size":"1"},{"size":"1"},{"size":"1"}]}}},"dtype":{"type":"DT_FLOAT"}}},
          {"name":"StatefulPartitionedCall/Generator/DownShuffleUnitV2_1/sequential_6/instance_normalization_8/Reshape_1","op":"Const","attr":{"dtype":{"type":"DT_FLOAT"},"value":{"tensor":{"dtype":"DT_FLOAT","tensorShape":{"dim":[{"size":"1"},{"size":"1"},{"size":"1"},{"size":"1"}]}}}}},
          {"name":"StatefulPartitionedCall/Generator/DownShuffleUnitV2_1/strided_slice_1/stack","op":"Const","attr":{"value":{"tensor":{"dtype":"DT_INT32","tensorShape":{"dim":[{"size":"1"}]}}},"dtype":{"type":"DT_INT32"}}},
          {"name":"StatefulPartitionedCall/Generator/DownShuffleUnitV2_1/strided_slice_1/stack_1","op":"Const","attr":{"dtype":{"type":"DT_INT32"},"value":{"tensor":{"dtype":"DT_INT32","tensorShape":{"dim":[{"size":"1"}]}}}}},
          {"name":"StatefulPartitionedCall/Generator/DownShuffleUnitV2_1/strided_slice_1/stack_2","op":"Const","attr":{"value":{"tensor":{"dtype":"DT_INT32","tensorShape":{"dim":[{"size":"1"}]}}},"dtype":{"type":"DT_INT32"}}},
          {"name":"StatefulPartitionedCall/Generator/DownShuffleUnitV2_1/Reshape_1/shape/3","op":"Const","attr":{"dtype":{"type":"DT_INT32"},"value":{"tensor":{"dtype":"DT_INT32","tensorShape":{}}}}},
          {"name":"StatefulPartitionedCall/Generator/sequential_15/BasicShuffleUnitV2/sequential_7/conv2d_7/Conv2D/ReadVariableOp","op":"Const","attr":{"value":{"tensor":{"dtype":"DT_FLOAT","tensorShape":{"dim":[{"size":"1"},{"size":"1"},{"size":"192"},{"size":"192"}]}}},"dtype":{"type":"DT_FLOAT"}}},
          {"name":"StatefulPartitionedCall/Generator/sequential_15/BasicShuffleUnitV2/sequential_7/instance_normalization_9/reduce_std/reduce_variance/Mean/reduction_indices","op":"Const","attr":{"dtype":{"type":"DT_INT32"},"value":{"tensor":{"dtype":"DT_INT32","tensorShape":{"dim":[{"size":"3"}]}}}}},
          {"name":"StatefulPartitionedCall/Generator/sequential_15/BasicShuffleUnitV2/sequential_7/instance_normalization_9/reduce_std/reduce_variance/Mean_1/reduction_indices","op":"Const","attr":{"value":{"tensor":{"dtype":"DT_INT32","tensorShape":{"dim":[{"size":"3"}]}}},"dtype":{"type":"DT_INT32"}}},
          {"name":"StatefulPartitionedCall/Generator/sequential_15/BasicShuffleUnitV2/sequential_7/instance_normalization_9/add/y","op":"Const","attr":{"value":{"tensor":{"dtype":"DT_FLOAT","tensorShape":{}}},"dtype":{"type":"DT_FLOAT"}}},
          {"name":"StatefulPartitionedCall/Generator/sequential_15/BasicShuffleUnitV2/sequential_7/instance_normalization_9/Reshape","op":"Const","attr":{"value":{"tensor":{"dtype":"DT_FLOAT","tensorShape":{"dim":[{"size":"1"},{"size":"1"},{"size":"1"},{"size":"1"}]}}},"dtype":{"type":"DT_FLOAT"}}},
          {"name":"StatefulPartitionedCall/Generator/sequential_15/BasicShuffleUnitV2/sequential_7/instance_normalization_9/Reshape_1","op":"Const","attr":{"value":{"tensor":{"dtype":"DT_FLOAT","tensorShape":{"dim":[{"size":"1"},{"size":"1"},{"size":"1"},{"size":"1"}]}}},"dtype":{"type":"DT_FLOAT"}}},
          {"name":"StatefulPartitionedCall/Generator/sequential_15/BasicShuffleUnitV2/sequential_7/depthwise_conv2d_4/depthwise/ReadVariableOp","op":"Const","attr":{"dtype":{"type":"DT_FLOAT"},"value":{"tensor":{"dtype":"DT_FLOAT","tensorShape":{"dim":[{"size":"3"},{"size":"3"},{"size":"192"},{"size":"1"}]}}}}},
          {"name":"StatefulPartitionedCall/Generator/sequential_15/BasicShuffleUnitV2/sequential_7/instance_normalization_10/reduce_std/reduce_variance/Mean/reduction_indices","op":"Const","attr":{"dtype":{"type":"DT_INT32"},"value":{"tensor":{"dtype":"DT_INT32","tensorShape":{"dim":[{"size":"3"}]}}}}},
          {"name":"StatefulPartitionedCall/Generator/sequential_15/BasicShuffleUnitV2/sequential_7/instance_normalization_10/reduce_std/reduce_variance/Mean_1/reduction_indices","op":"Const","attr":{"value":{"tensor":{"dtype":"DT_INT32","tensorShape":{"dim":[{"size":"3"}]}}},"dtype":{"type":"DT_INT32"}}},
          {"name":"StatefulPartitionedCall/Generator/sequential_15/BasicShuffleUnitV2/sequential_7/instance_normalization_10/add/y","op":"Const","attr":{"value":{"tensor":{"dtype":"DT_FLOAT","tensorShape":{}}},"dtype":{"type":"DT_FLOAT"}}},
          {"name":"StatefulPartitionedCall/Generator/sequential_15/BasicShuffleUnitV2/sequential_7/instance_normalization_10/Reshape","op":"Const","attr":{"value":{"tensor":{"dtype":"DT_FLOAT","tensorShape":{"dim":[{"size":"1"},{"size":"1"},{"size":"1"},{"size":"1"}]}}},"dtype":{"type":"DT_FLOAT"}}},
          {"name":"StatefulPartitionedCall/Generator/sequential_15/BasicShuffleUnitV2/sequential_7/instance_normalization_10/Reshape_1","op":"Const","attr":{"value":{"tensor":{"dtype":"DT_FLOAT","tensorShape":{"dim":[{"size":"1"},{"size":"1"},{"size":"1"},{"size":"1"}]}}},"dtype":{"type":"DT_FLOAT"}}},
          {"name":"StatefulPartitionedCall/Generator/sequential_15/BasicShuffleUnitV2/sequential_7/conv2d_8/Conv2D/ReadVariableOp","op":"Const","attr":{"value":{"tensor":{"dtype":"DT_FLOAT","tensorShape":{"dim":[{"size":"1"},{"size":"1"},{"size":"192"},{"size":"192"}]}}},"dtype":{"type":"DT_FLOAT"}}},
          {"name":"StatefulPartitionedCall/Generator/sequential_15/BasicShuffleUnitV2/sequential_7/instance_normalization_11/reduce_std/reduce_variance/Mean/reduction_indices","op":"Const","attr":{"value":{"tensor":{"dtype":"DT_INT32","tensorShape":{"dim":[{"size":"3"}]}}},"dtype":{"type":"DT_INT32"}}},
          {"name":"StatefulPartitionedCall/Generator/sequential_15/BasicShuffleUnitV2/sequential_7/instance_normalization_11/reduce_std/reduce_variance/Mean_1/reduction_indices","op":"Const","attr":{"dtype":{"type":"DT_INT32"},"value":{"tensor":{"dtype":"DT_INT32","tensorShape":{"dim":[{"size":"3"}]}}}}},
          {"name":"StatefulPartitionedCall/Generator/sequential_15/BasicShuffleUnitV2/sequential_7/instance_normalization_11/add/y","op":"Const","attr":{"value":{"tensor":{"dtype":"DT_FLOAT","tensorShape":{}}},"dtype":{"type":"DT_FLOAT"}}},
          {"name":"StatefulPartitionedCall/Generator/sequential_15/BasicShuffleUnitV2/sequential_7/instance_normalization_11/Reshape","op":"Const","attr":{"value":{"tensor":{"dtype":"DT_FLOAT","tensorShape":{"dim":[{"size":"1"},{"size":"1"},{"size":"1"},{"size":"1"}]}}},"dtype":{"type":"DT_FLOAT"}}},
          {"name":"StatefulPartitionedCall/Generator/sequential_15/BasicShuffleUnitV2/sequential_7/instance_normalization_11/Reshape_1","op":"Const","attr":{"dtype":{"type":"DT_FLOAT"},"value":{"tensor":{"dtype":"DT_FLOAT","tensorShape":{"dim":[{"size":"1"},{"size":"1"},{"size":"1"},{"size":"1"}]}}}}},
          {"name":"StatefulPartitionedCall/Generator/sequential_15/BasicShuffleUnitV2/concat/axis","op":"Const","attr":{"dtype":{"type":"DT_INT32"},"value":{"tensor":{"dtype":"DT_INT32","tensorShape":{}}}}},
          {"name":"StatefulPartitionedCall/Generator/sequential_15/BasicShuffleUnitV2/strided_slice_1/stack","op":"Const","attr":{"dtype":{"type":"DT_INT32"},"value":{"tensor":{"dtype":"DT_INT32","tensorShape":{"dim":[{"size":"1"}]}}}}},
          {"name":"StatefulPartitionedCall/Generator/sequential_15/BasicShuffleUnitV2/strided_slice_1/stack_1","op":"Const","attr":{"dtype":{"type":"DT_INT32"},"value":{"tensor":{"dtype":"DT_INT32","tensorShape":{"dim":[{"size":"1"}]}}}}},
          {"name":"StatefulPartitionedCall/Generator/sequential_15/BasicShuffleUnitV2/strided_slice_1/stack_2","op":"Const","attr":{"value":{"tensor":{"dtype":"DT_INT32","tensorShape":{"dim":[{"size":"1"}]}}},"dtype":{"type":"DT_INT32"}}},
          {"name":"StatefulPartitionedCall/Generator/sequential_15/BasicShuffleUnitV2/Reshape_1/shape/3","op":"Const","attr":{"value":{"tensor":{"dtype":"DT_INT32","tensorShape":{}}},"dtype":{"type":"DT_INT32"}}},
          {"name":"StatefulPartitionedCall/Generator/sequential_15/BasicShuffleUnitV2_1/sequential_8/conv2d_9/Conv2D/ReadVariableOp","op":"Const","attr":{"dtype":{"type":"DT_FLOAT"},"value":{"tensor":{"dtype":"DT_FLOAT","tensorShape":{"dim":[{"size":"1"},{"size":"1"},{"size":"192"},{"size":"192"}]}}}}},
          {"name":"StatefulPartitionedCall/Generator/sequential_15/BasicShuffleUnitV2_1/sequential_8/instance_normalization_12/reduce_std/reduce_variance/Mean/reduction_indices","op":"Const","attr":{"value":{"tensor":{"dtype":"DT_INT32","tensorShape":{"dim":[{"size":"3"}]}}},"dtype":{"type":"DT_INT32"}}},
          {"name":"StatefulPartitionedCall/Generator/sequential_15/BasicShuffleUnitV2_1/sequential_8/instance_normalization_12/reduce_std/reduce_variance/Mean_1/reduction_indices","op":"Const","attr":{"dtype":{"type":"DT_INT32"},"value":{"tensor":{"dtype":"DT_INT32","tensorShape":{"dim":[{"size":"3"}]}}}}},
          {"name":"StatefulPartitionedCall/Generator/sequential_15/BasicShuffleUnitV2_1/sequential_8/instance_normalization_12/add/y","op":"Const","attr":{"value":{"tensor":{"dtype":"DT_FLOAT","tensorShape":{}}},"dtype":{"type":"DT_FLOAT"}}},
          {"name":"StatefulPartitionedCall/Generator/sequential_15/BasicShuffleUnitV2_1/sequential_8/instance_normalization_12/Reshape","op":"Const","attr":{"dtype":{"type":"DT_FLOAT"},"value":{"tensor":{"dtype":"DT_FLOAT","tensorShape":{"dim":[{"size":"1"},{"size":"1"},{"size":"1"},{"size":"1"}]}}}}},
          {"name":"StatefulPartitionedCall/Generator/sequential_15/BasicShuffleUnitV2_1/sequential_8/instance_normalization_12/Reshape_1","op":"Const","attr":{"value":{"tensor":{"dtype":"DT_FLOAT","tensorShape":{"dim":[{"size":"1"},{"size":"1"},{"size":"1"},{"size":"1"}]}}},"dtype":{"type":"DT_FLOAT"}}},
          {"name":"StatefulPartitionedCall/Generator/sequential_15/BasicShuffleUnitV2_1/sequential_8/depthwise_conv2d_5/depthwise/ReadVariableOp","op":"Const","attr":{"dtype":{"type":"DT_FLOAT"},"value":{"tensor":{"dtype":"DT_FLOAT","tensorShape":{"dim":[{"size":"3"},{"size":"3"},{"size":"192"},{"size":"1"}]}}}}},
          {"name":"StatefulPartitionedCall/Generator/sequential_15/BasicShuffleUnitV2_1/sequential_8/instance_normalization_13/reduce_std/reduce_variance/Mean/reduction_indices","op":"Const","attr":{"dtype":{"type":"DT_INT32"},"value":{"tensor":{"dtype":"DT_INT32","tensorShape":{"dim":[{"size":"3"}]}}}}},
          {"name":"StatefulPartitionedCall/Generator/sequential_15/BasicShuffleUnitV2_1/sequential_8/instance_normalization_13/reduce_std/reduce_variance/Mean_1/reduction_indices","op":"Const","attr":{"value":{"tensor":{"dtype":"DT_INT32","tensorShape":{"dim":[{"size":"3"}]}}},"dtype":{"type":"DT_INT32"}}},
          {"name":"StatefulPartitionedCall/Generator/sequential_15/BasicShuffleUnitV2_1/sequential_8/instance_normalization_13/add/y","op":"Const","attr":{"dtype":{"type":"DT_FLOAT"},"value":{"tensor":{"dtype":"DT_FLOAT","tensorShape":{}}}}},
          {"name":"StatefulPartitionedCall/Generator/sequential_15/BasicShuffleUnitV2_1/sequential_8/instance_normalization_13/Reshape","op":"Const","attr":{"dtype":{"type":"DT_FLOAT"},"value":{"tensor":{"dtype":"DT_FLOAT","tensorShape":{"dim":[{"size":"1"},{"size":"1"},{"size":"1"},{"size":"1"}]}}}}},
          {"name":"StatefulPartitionedCall/Generator/sequential_15/BasicShuffleUnitV2_1/sequential_8/instance_normalization_13/Reshape_1","op":"Const","attr":{"value":{"tensor":{"dtype":"DT_FLOAT","tensorShape":{"dim":[{"size":"1"},{"size":"1"},{"size":"1"},{"size":"1"}]}}},"dtype":{"type":"DT_FLOAT"}}},
          {"name":"StatefulPartitionedCall/Generator/sequential_15/BasicShuffleUnitV2_1/sequential_8/conv2d_10/Conv2D/ReadVariableOp","op":"Const","attr":{"value":{"tensor":{"dtype":"DT_FLOAT","tensorShape":{"dim":[{"size":"1"},{"size":"1"},{"size":"192"},{"size":"192"}]}}},"dtype":{"type":"DT_FLOAT"}}},
          {"name":"StatefulPartitionedCall/Generator/sequential_15/BasicShuffleUnitV2_1/sequential_8/instance_normalization_14/reduce_std/reduce_variance/Mean/reduction_indices","op":"Const","attr":{"dtype":{"type":"DT_INT32"},"value":{"tensor":{"dtype":"DT_INT32","tensorShape":{"dim":[{"size":"3"}]}}}}},
          {"name":"StatefulPartitionedCall/Generator/sequential_15/BasicShuffleUnitV2_1/sequential_8/instance_normalization_14/reduce_std/reduce_variance/Mean_1/reduction_indices","op":"Const","attr":{"dtype":{"type":"DT_INT32"},"value":{"tensor":{"dtype":"DT_INT32","tensorShape":{"dim":[{"size":"3"}]}}}}},
          {"name":"StatefulPartitionedCall/Generator/sequential_15/BasicShuffleUnitV2_1/sequential_8/instance_normalization_14/add/y","op":"Const","attr":{"dtype":{"type":"DT_FLOAT"},"value":{"tensor":{"dtype":"DT_FLOAT","tensorShape":{}}}}},
          {"name":"StatefulPartitionedCall/Generator/sequential_15/BasicShuffleUnitV2_1/sequential_8/instance_normalization_14/Reshape","op":"Const","attr":{"dtype":{"type":"DT_FLOAT"},"value":{"tensor":{"dtype":"DT_FLOAT","tensorShape":{"dim":[{"size":"1"},{"size":"1"},{"size":"1"},{"size":"1"}]}}}}},
          {"name":"StatefulPartitionedCall/Generator/sequential_15/BasicShuffleUnitV2_1/sequential_8/instance_normalization_14/Reshape_1","op":"Const","attr":{"dtype":{"type":"DT_FLOAT"},"value":{"tensor":{"dtype":"DT_FLOAT","tensorShape":{"dim":[{"size":"1"},{"size":"1"},{"size":"1"},{"size":"1"}]}}}}},
          {"name":"StatefulPartitionedCall/Generator/sequential_15/BasicShuffleUnitV2_1/concat/axis","op":"Const","attr":{"dtype":{"type":"DT_INT32"},"value":{"tensor":{"dtype":"DT_INT32","tensorShape":{}}}}},
          {"name":"StatefulPartitionedCall/Generator/sequential_15/BasicShuffleUnitV2_1/strided_slice_1/stack","op":"Const","attr":{"dtype":{"type":"DT_INT32"},"value":{"tensor":{"dtype":"DT_INT32","tensorShape":{"dim":[{"size":"1"}]}}}}},
          {"name":"StatefulPartitionedCall/Generator/sequential_15/BasicShuffleUnitV2_1/strided_slice_1/stack_1","op":"Const","attr":{"value":{"tensor":{"dtype":"DT_INT32","tensorShape":{"dim":[{"size":"1"}]}}},"dtype":{"type":"DT_INT32"}}},
          {"name":"StatefulPartitionedCall/Generator/sequential_15/BasicShuffleUnitV2_1/strided_slice_1/stack_2","op":"Const","attr":{"dtype":{"type":"DT_INT32"},"value":{"tensor":{"dtype":"DT_INT32","tensorShape":{"dim":[{"size":"1"}]}}}}},
          {"name":"StatefulPartitionedCall/Generator/sequential_15/BasicShuffleUnitV2_1/Reshape_1/shape/3","op":"Const","attr":{"dtype":{"type":"DT_INT32"},"value":{"tensor":{"dtype":"DT_INT32","tensorShape":{}}}}},
          {"name":"StatefulPartitionedCall/Generator/sequential_15/BasicShuffleUnitV2_2/sequential_9/conv2d_11/Conv2D/ReadVariableOp","op":"Const","attr":{"dtype":{"type":"DT_FLOAT"},"value":{"tensor":{"dtype":"DT_FLOAT","tensorShape":{"dim":[{"size":"1"},{"size":"1"},{"size":"192"},{"size":"192"}]}}}}},
          {"name":"StatefulPartitionedCall/Generator/sequential_15/BasicShuffleUnitV2_2/sequential_9/instance_normalization_15/reduce_std/reduce_variance/Mean/reduction_indices","op":"Const","attr":{"value":{"tensor":{"dtype":"DT_INT32","tensorShape":{"dim":[{"size":"3"}]}}},"dtype":{"type":"DT_INT32"}}},
          {"name":"StatefulPartitionedCall/Generator/sequential_15/BasicShuffleUnitV2_2/sequential_9/instance_normalization_15/reduce_std/reduce_variance/Mean_1/reduction_indices","op":"Const","attr":{"dtype":{"type":"DT_INT32"},"value":{"tensor":{"dtype":"DT_INT32","tensorShape":{"dim":[{"size":"3"}]}}}}},
          {"name":"StatefulPartitionedCall/Generator/sequential_15/BasicShuffleUnitV2_2/sequential_9/instance_normalization_15/add/y","op":"Const","attr":{"dtype":{"type":"DT_FLOAT"},"value":{"tensor":{"dtype":"DT_FLOAT","tensorShape":{}}}}},
          {"name":"StatefulPartitionedCall/Generator/sequential_15/BasicShuffleUnitV2_2/sequential_9/instance_normalization_15/Reshape","op":"Const","attr":{"dtype":{"type":"DT_FLOAT"},"value":{"tensor":{"dtype":"DT_FLOAT","tensorShape":{"dim":[{"size":"1"},{"size":"1"},{"size":"1"},{"size":"1"}]}}}}},
          {"name":"StatefulPartitionedCall/Generator/sequential_15/BasicShuffleUnitV2_2/sequential_9/instance_normalization_15/Reshape_1","op":"Const","attr":{"dtype":{"type":"DT_FLOAT"},"value":{"tensor":{"dtype":"DT_FLOAT","tensorShape":{"dim":[{"size":"1"},{"size":"1"},{"size":"1"},{"size":"1"}]}}}}},
          {"name":"StatefulPartitionedCall/Generator/sequential_15/BasicShuffleUnitV2_2/sequential_9/depthwise_conv2d_6/depthwise/ReadVariableOp","op":"Const","attr":{"value":{"tensor":{"dtype":"DT_FLOAT","tensorShape":{"dim":[{"size":"3"},{"size":"3"},{"size":"192"},{"size":"1"}]}}},"dtype":{"type":"DT_FLOAT"}}},
          {"name":"StatefulPartitionedCall/Generator/sequential_15/BasicShuffleUnitV2_2/sequential_9/instance_normalization_16/reduce_std/reduce_variance/Mean/reduction_indices","op":"Const","attr":{"dtype":{"type":"DT_INT32"},"value":{"tensor":{"dtype":"DT_INT32","tensorShape":{"dim":[{"size":"3"}]}}}}},
          {"name":"StatefulPartitionedCall/Generator/sequential_15/BasicShuffleUnitV2_2/sequential_9/instance_normalization_16/reduce_std/reduce_variance/Mean_1/reduction_indices","op":"Const","attr":{"value":{"tensor":{"dtype":"DT_INT32","tensorShape":{"dim":[{"size":"3"}]}}},"dtype":{"type":"DT_INT32"}}},
          {"name":"StatefulPartitionedCall/Generator/sequential_15/BasicShuffleUnitV2_2/sequential_9/instance_normalization_16/add/y","op":"Const","attr":{"dtype":{"type":"DT_FLOAT"},"value":{"tensor":{"dtype":"DT_FLOAT","tensorShape":{}}}}},
          {"name":"StatefulPartitionedCall/Generator/sequential_15/BasicShuffleUnitV2_2/sequential_9/instance_normalization_16/Reshape","op":"Const","attr":{"dtype":{"type":"DT_FLOAT"},"value":{"tensor":{"dtype":"DT_FLOAT","tensorShape":{"dim":[{"size":"1"},{"size":"1"},{"size":"1"},{"size":"1"}]}}}}},
          {"name":"StatefulPartitionedCall/Generator/sequential_15/BasicShuffleUnitV2_2/sequential_9/instance_normalization_16/Reshape_1","op":"Const","attr":{"value":{"tensor":{"dtype":"DT_FLOAT","tensorShape":{"dim":[{"size":"1"},{"size":"1"},{"size":"1"},{"size":"1"}]}}},"dtype":{"type":"DT_FLOAT"}}},
          {"name":"StatefulPartitionedCall/Generator/sequential_15/BasicShuffleUnitV2_2/sequential_9/conv2d_12/Conv2D/ReadVariableOp","op":"Const","attr":{"value":{"tensor":{"dtype":"DT_FLOAT","tensorShape":{"dim":[{"size":"1"},{"size":"1"},{"size":"192"},{"size":"192"}]}}},"dtype":{"type":"DT_FLOAT"}}},
          {"name":"StatefulPartitionedCall/Generator/sequential_15/BasicShuffleUnitV2_2/sequential_9/instance_normalization_17/reduce_std/reduce_variance/Mean/reduction_indices","op":"Const","attr":{"value":{"tensor":{"dtype":"DT_INT32","tensorShape":{"dim":[{"size":"3"}]}}},"dtype":{"type":"DT_INT32"}}},
          {"name":"StatefulPartitionedCall/Generator/sequential_15/BasicShuffleUnitV2_2/sequential_9/instance_normalization_17/reduce_std/reduce_variance/Mean_1/reduction_indices","op":"Const","attr":{"value":{"tensor":{"dtype":"DT_INT32","tensorShape":{"dim":[{"size":"3"}]}}},"dtype":{"type":"DT_INT32"}}},
          {"name":"StatefulPartitionedCall/Generator/sequential_15/BasicShuffleUnitV2_2/sequential_9/instance_normalization_17/add/y","op":"Const","attr":{"dtype":{"type":"DT_FLOAT"},"value":{"tensor":{"dtype":"DT_FLOAT","tensorShape":{}}}}},
          {"name":"StatefulPartitionedCall/Generator/sequential_15/BasicShuffleUnitV2_2/sequential_9/instance_normalization_17/Reshape","op":"Const","attr":{"dtype":{"type":"DT_FLOAT"},"value":{"tensor":{"dtype":"DT_FLOAT","tensorShape":{"dim":[{"size":"1"},{"size":"1"},{"size":"1"},{"size":"1"}]}}}}},
          {"name":"StatefulPartitionedCall/Generator/sequential_15/BasicShuffleUnitV2_2/sequential_9/instance_normalization_17/Reshape_1","op":"Const","attr":{"dtype":{"type":"DT_FLOAT"},"value":{"tensor":{"dtype":"DT_FLOAT","tensorShape":{"dim":[{"size":"1"},{"size":"1"},{"size":"1"},{"size":"1"}]}}}}},
          {"name":"StatefulPartitionedCall/Generator/sequential_15/BasicShuffleUnitV2_2/concat/axis","op":"Const","attr":{"dtype":{"type":"DT_INT32"},"value":{"tensor":{"dtype":"DT_INT32","tensorShape":{}}}}},
          {"name":"StatefulPartitionedCall/Generator/sequential_15/BasicShuffleUnitV2_2/strided_slice_1/stack","op":"Const","attr":{"value":{"tensor":{"dtype":"DT_INT32","tensorShape":{"dim":[{"size":"1"}]}}},"dtype":{"type":"DT_INT32"}}},
          {"name":"StatefulPartitionedCall/Generator/sequential_15/BasicShuffleUnitV2_2/strided_slice_1/stack_1","op":"Const","attr":{"dtype":{"type":"DT_INT32"},"value":{"tensor":{"dtype":"DT_INT32","tensorShape":{"dim":[{"size":"1"}]}}}}},
          {"name":"StatefulPartitionedCall/Generator/sequential_15/BasicShuffleUnitV2_2/strided_slice_1/stack_2","op":"Const","attr":{"value":{"tensor":{"dtype":"DT_INT32","tensorShape":{"dim":[{"size":"1"}]}}},"dtype":{"type":"DT_INT32"}}},
          {"name":"StatefulPartitionedCall/Generator/sequential_15/BasicShuffleUnitV2_2/Reshape_1/shape/3","op":"Const","attr":{"dtype":{"type":"DT_INT32"},"value":{"tensor":{"dtype":"DT_INT32","tensorShape":{}}}}},
          {"name":"StatefulPartitionedCall/Generator/sequential_15/BasicShuffleUnitV2_3/sequential_10/conv2d_13/Conv2D/ReadVariableOp","op":"Const","attr":{"dtype":{"type":"DT_FLOAT"},"value":{"tensor":{"dtype":"DT_FLOAT","tensorShape":{"dim":[{"size":"1"},{"size":"1"},{"size":"192"},{"size":"192"}]}}}}},
          {"name":"StatefulPartitionedCall/Generator/sequential_15/BasicShuffleUnitV2_3/sequential_10/instance_normalization_18/reduce_std/reduce_variance/Mean/reduction_indices","op":"Const","attr":{"value":{"tensor":{"dtype":"DT_INT32","tensorShape":{"dim":[{"size":"3"}]}}},"dtype":{"type":"DT_INT32"}}},
          {"name":"StatefulPartitionedCall/Generator/sequential_15/BasicShuffleUnitV2_3/sequential_10/instance_normalization_18/reduce_std/reduce_variance/Mean_1/reduction_indices","op":"Const","attr":{"dtype":{"type":"DT_INT32"},"value":{"tensor":{"dtype":"DT_INT32","tensorShape":{"dim":[{"size":"3"}]}}}}},
          {"name":"StatefulPartitionedCall/Generator/sequential_15/BasicShuffleUnitV2_3/sequential_10/instance_normalization_18/add/y","op":"Const","attr":{"dtype":{"type":"DT_FLOAT"},"value":{"tensor":{"dtype":"DT_FLOAT","tensorShape":{}}}}},
          {"name":"StatefulPartitionedCall/Generator/sequential_15/BasicShuffleUnitV2_3/sequential_10/instance_normalization_18/Reshape","op":"Const","attr":{"dtype":{"type":"DT_FLOAT"},"value":{"tensor":{"dtype":"DT_FLOAT","tensorShape":{"dim":[{"size":"1"},{"size":"1"},{"size":"1"},{"size":"1"}]}}}}},
          {"name":"StatefulPartitionedCall/Generator/sequential_15/BasicShuffleUnitV2_3/sequential_10/instance_normalization_18/Reshape_1","op":"Const","attr":{"dtype":{"type":"DT_FLOAT"},"value":{"tensor":{"dtype":"DT_FLOAT","tensorShape":{"dim":[{"size":"1"},{"size":"1"},{"size":"1"},{"size":"1"}]}}}}},
          {"name":"StatefulPartitionedCall/Generator/sequential_15/BasicShuffleUnitV2_3/sequential_10/depthwise_conv2d_7/depthwise/ReadVariableOp","op":"Const","attr":{"dtype":{"type":"DT_FLOAT"},"value":{"tensor":{"dtype":"DT_FLOAT","tensorShape":{"dim":[{"size":"3"},{"size":"3"},{"size":"192"},{"size":"1"}]}}}}},
          {"name":"StatefulPartitionedCall/Generator/sequential_15/BasicShuffleUnitV2_3/sequential_10/instance_normalization_19/reduce_std/reduce_variance/Mean/reduction_indices","op":"Const","attr":{"dtype":{"type":"DT_INT32"},"value":{"tensor":{"dtype":"DT_INT32","tensorShape":{"dim":[{"size":"3"}]}}}}},
          {"name":"StatefulPartitionedCall/Generator/sequential_15/BasicShuffleUnitV2_3/sequential_10/instance_normalization_19/reduce_std/reduce_variance/Mean_1/reduction_indices","op":"Const","attr":{"value":{"tensor":{"dtype":"DT_INT32","tensorShape":{"dim":[{"size":"3"}]}}},"dtype":{"type":"DT_INT32"}}},
          {"name":"StatefulPartitionedCall/Generator/sequential_15/BasicShuffleUnitV2_3/sequential_10/instance_normalization_19/add/y","op":"Const","attr":{"dtype":{"type":"DT_FLOAT"},"value":{"tensor":{"dtype":"DT_FLOAT","tensorShape":{}}}}},
          {"name":"StatefulPartitionedCall/Generator/sequential_15/BasicShuffleUnitV2_3/sequential_10/instance_normalization_19/Reshape","op":"Const","attr":{"dtype":{"type":"DT_FLOAT"},"value":{"tensor":{"dtype":"DT_FLOAT","tensorShape":{"dim":[{"size":"1"},{"size":"1"},{"size":"1"},{"size":"1"}]}}}}},
          {"name":"StatefulPartitionedCall/Generator/sequential_15/BasicShuffleUnitV2_3/sequential_10/instance_normalization_19/Reshape_1","op":"Const","attr":{"value":{"tensor":{"dtype":"DT_FLOAT","tensorShape":{"dim":[{"size":"1"},{"size":"1"},{"size":"1"},{"size":"1"}]}}},"dtype":{"type":"DT_FLOAT"}}},
          {"name":"StatefulPartitionedCall/Generator/sequential_15/BasicShuffleUnitV2_3/sequential_10/conv2d_14/Conv2D/ReadVariableOp","op":"Const","attr":{"value":{"tensor":{"dtype":"DT_FLOAT","tensorShape":{"dim":[{"size":"1"},{"size":"1"},{"size":"192"},{"size":"192"}]}}},"dtype":{"type":"DT_FLOAT"}}},
          {"name":"StatefulPartitionedCall/Generator/sequential_15/BasicShuffleUnitV2_3/sequential_10/instance_normalization_20/reduce_std/reduce_variance/Mean/reduction_indices","op":"Const","attr":{"dtype":{"type":"DT_INT32"},"value":{"tensor":{"dtype":"DT_INT32","tensorShape":{"dim":[{"size":"3"}]}}}}},
          {"name":"StatefulPartitionedCall/Generator/sequential_15/BasicShuffleUnitV2_3/sequential_10/instance_normalization_20/reduce_std/reduce_variance/Mean_1/reduction_indices","op":"Const","attr":{"value":{"tensor":{"dtype":"DT_INT32","tensorShape":{"dim":[{"size":"3"}]}}},"dtype":{"type":"DT_INT32"}}},
          {"name":"StatefulPartitionedCall/Generator/sequential_15/BasicShuffleUnitV2_3/sequential_10/instance_normalization_20/add/y","op":"Const","attr":{"value":{"tensor":{"dtype":"DT_FLOAT","tensorShape":{}}},"dtype":{"type":"DT_FLOAT"}}},
          {"name":"StatefulPartitionedCall/Generator/sequential_15/BasicShuffleUnitV2_3/sequential_10/instance_normalization_20/Reshape","op":"Const","attr":{"value":{"tensor":{"dtype":"DT_FLOAT","tensorShape":{"dim":[{"size":"1"},{"size":"1"},{"size":"1"},{"size":"1"}]}}},"dtype":{"type":"DT_FLOAT"}}},
          {"name":"StatefulPartitionedCall/Generator/sequential_15/BasicShuffleUnitV2_3/sequential_10/instance_normalization_20/Reshape_1","op":"Const","attr":{"dtype":{"type":"DT_FLOAT"},"value":{"tensor":{"dtype":"DT_FLOAT","tensorShape":{"dim":[{"size":"1"},{"size":"1"},{"size":"1"},{"size":"1"}]}}}}},
          {"name":"StatefulPartitionedCall/Generator/sequential_15/BasicShuffleUnitV2_3/concat/axis","op":"Const","attr":{"dtype":{"type":"DT_INT32"},"value":{"tensor":{"dtype":"DT_INT32","tensorShape":{}}}}},
          {"name":"StatefulPartitionedCall/Generator/sequential_15/BasicShuffleUnitV2_3/strided_slice_1/stack","op":"Const","attr":{"dtype":{"type":"DT_INT32"},"value":{"tensor":{"dtype":"DT_INT32","tensorShape":{"dim":[{"size":"1"}]}}}}},
          {"name":"StatefulPartitionedCall/Generator/sequential_15/BasicShuffleUnitV2_3/strided_slice_1/stack_1","op":"Const","attr":{"dtype":{"type":"DT_INT32"},"value":{"tensor":{"dtype":"DT_INT32","tensorShape":{"dim":[{"size":"1"}]}}}}},
          {"name":"StatefulPartitionedCall/Generator/sequential_15/BasicShuffleUnitV2_3/strided_slice_1/stack_2","op":"Const","attr":{"dtype":{"type":"DT_INT32"},"value":{"tensor":{"dtype":"DT_INT32","tensorShape":{"dim":[{"size":"1"}]}}}}},
          {"name":"StatefulPartitionedCall/Generator/sequential_15/BasicShuffleUnitV2_3/Reshape_1/shape/3","op":"Const","attr":{"value":{"tensor":{"dtype":"DT_INT32","tensorShape":{}}},"dtype":{"type":"DT_INT32"}}},
          {"name":"StatefulPartitionedCall/Generator/sequential_15/BasicShuffleUnitV2_4/sequential_11/conv2d_15/Conv2D/ReadVariableOp","op":"Const","attr":{"dtype":{"type":"DT_FLOAT"},"value":{"tensor":{"dtype":"DT_FLOAT","tensorShape":{"dim":[{"size":"1"},{"size":"1"},{"size":"192"},{"size":"192"}]}}}}},
          {"name":"StatefulPartitionedCall/Generator/sequential_15/BasicShuffleUnitV2_4/sequential_11/instance_normalization_21/reduce_std/reduce_variance/Mean/reduction_indices","op":"Const","attr":{"value":{"tensor":{"dtype":"DT_INT32","tensorShape":{"dim":[{"size":"3"}]}}},"dtype":{"type":"DT_INT32"}}},
          {"name":"StatefulPartitionedCall/Generator/sequential_15/BasicShuffleUnitV2_4/sequential_11/instance_normalization_21/reduce_std/reduce_variance/Mean_1/reduction_indices","op":"Const","attr":{"dtype":{"type":"DT_INT32"},"value":{"tensor":{"dtype":"DT_INT32","tensorShape":{"dim":[{"size":"3"}]}}}}},
          {"name":"StatefulPartitionedCall/Generator/sequential_15/BasicShuffleUnitV2_4/sequential_11/instance_normalization_21/add/y","op":"Const","attr":{"value":{"tensor":{"dtype":"DT_FLOAT","tensorShape":{}}},"dtype":{"type":"DT_FLOAT"}}},
          {"name":"StatefulPartitionedCall/Generator/sequential_15/BasicShuffleUnitV2_4/sequential_11/instance_normalization_21/Reshape","op":"Const","attr":{"value":{"tensor":{"dtype":"DT_FLOAT","tensorShape":{"dim":[{"size":"1"},{"size":"1"},{"size":"1"},{"size":"1"}]}}},"dtype":{"type":"DT_FLOAT"}}},
          {"name":"StatefulPartitionedCall/Generator/sequential_15/BasicShuffleUnitV2_4/sequential_11/instance_normalization_21/Reshape_1","op":"Const","attr":{"dtype":{"type":"DT_FLOAT"},"value":{"tensor":{"dtype":"DT_FLOAT","tensorShape":{"dim":[{"size":"1"},{"size":"1"},{"size":"1"},{"size":"1"}]}}}}},
          {"name":"StatefulPartitionedCall/Generator/sequential_15/BasicShuffleUnitV2_4/sequential_11/depthwise_conv2d_8/depthwise/ReadVariableOp","op":"Const","attr":{"value":{"tensor":{"dtype":"DT_FLOAT","tensorShape":{"dim":[{"size":"3"},{"size":"3"},{"size":"192"},{"size":"1"}]}}},"dtype":{"type":"DT_FLOAT"}}},
          {"name":"StatefulPartitionedCall/Generator/sequential_15/BasicShuffleUnitV2_4/sequential_11/instance_normalization_22/reduce_std/reduce_variance/Mean/reduction_indices","op":"Const","attr":{"value":{"tensor":{"dtype":"DT_INT32","tensorShape":{"dim":[{"size":"3"}]}}},"dtype":{"type":"DT_INT32"}}},
          {"name":"StatefulPartitionedCall/Generator/sequential_15/BasicShuffleUnitV2_4/sequential_11/instance_normalization_22/reduce_std/reduce_variance/Mean_1/reduction_indices","op":"Const","attr":{"dtype":{"type":"DT_INT32"},"value":{"tensor":{"dtype":"DT_INT32","tensorShape":{"dim":[{"size":"3"}]}}}}},
          {"name":"StatefulPartitionedCall/Generator/sequential_15/BasicShuffleUnitV2_4/sequential_11/instance_normalization_22/add/y","op":"Const","attr":{"value":{"tensor":{"dtype":"DT_FLOAT","tensorShape":{}}},"dtype":{"type":"DT_FLOAT"}}},
          {"name":"StatefulPartitionedCall/Generator/sequential_15/BasicShuffleUnitV2_4/sequential_11/instance_normalization_22/Reshape","op":"Const","attr":{"dtype":{"type":"DT_FLOAT"},"value":{"tensor":{"dtype":"DT_FLOAT","tensorShape":{"dim":[{"size":"1"},{"size":"1"},{"size":"1"},{"size":"1"}]}}}}},
          {"name":"StatefulPartitionedCall/Generator/sequential_15/BasicShuffleUnitV2_4/sequential_11/instance_normalization_22/Reshape_1","op":"Const","attr":{"value":{"tensor":{"dtype":"DT_FLOAT","tensorShape":{"dim":[{"size":"1"},{"size":"1"},{"size":"1"},{"size":"1"}]}}},"dtype":{"type":"DT_FLOAT"}}},
          {"name":"StatefulPartitionedCall/Generator/sequential_15/BasicShuffleUnitV2_4/sequential_11/conv2d_16/Conv2D/ReadVariableOp","op":"Const","attr":{"dtype":{"type":"DT_FLOAT"},"value":{"tensor":{"dtype":"DT_FLOAT","tensorShape":{"dim":[{"size":"1"},{"size":"1"},{"size":"192"},{"size":"192"}]}}}}},
          {"name":"StatefulPartitionedCall/Generator/sequential_15/BasicShuffleUnitV2_4/sequential_11/instance_normalization_23/reduce_std/reduce_variance/Mean/reduction_indices","op":"Const","attr":{"value":{"tensor":{"dtype":"DT_INT32","tensorShape":{"dim":[{"size":"3"}]}}},"dtype":{"type":"DT_INT32"}}},
          {"name":"StatefulPartitionedCall/Generator/sequential_15/BasicShuffleUnitV2_4/sequential_11/instance_normalization_23/reduce_std/reduce_variance/Mean_1/reduction_indices","op":"Const","attr":{"dtype":{"type":"DT_INT32"},"value":{"tensor":{"dtype":"DT_INT32","tensorShape":{"dim":[{"size":"3"}]}}}}},
          {"name":"StatefulPartitionedCall/Generator/sequential_15/BasicShuffleUnitV2_4/sequential_11/instance_normalization_23/add/y","op":"Const","attr":{"dtype":{"type":"DT_FLOAT"},"value":{"tensor":{"dtype":"DT_FLOAT","tensorShape":{}}}}},
          {"name":"StatefulPartitionedCall/Generator/sequential_15/BasicShuffleUnitV2_4/sequential_11/instance_normalization_23/Reshape","op":"Const","attr":{"value":{"tensor":{"dtype":"DT_FLOAT","tensorShape":{"dim":[{"size":"1"},{"size":"1"},{"size":"1"},{"size":"1"}]}}},"dtype":{"type":"DT_FLOAT"}}},
          {"name":"StatefulPartitionedCall/Generator/sequential_15/BasicShuffleUnitV2_4/sequential_11/instance_normalization_23/Reshape_1","op":"Const","attr":{"value":{"tensor":{"dtype":"DT_FLOAT","tensorShape":{"dim":[{"size":"1"},{"size":"1"},{"size":"1"},{"size":"1"}]}}},"dtype":{"type":"DT_FLOAT"}}},
          {"name":"StatefulPartitionedCall/Generator/sequential_15/BasicShuffleUnitV2_4/concat/axis","op":"Const","attr":{"value":{"tensor":{"dtype":"DT_INT32","tensorShape":{}}},"dtype":{"type":"DT_INT32"}}},
          {"name":"StatefulPartitionedCall/Generator/sequential_15/BasicShuffleUnitV2_4/strided_slice_1/stack","op":"Const","attr":{"value":{"tensor":{"dtype":"DT_INT32","tensorShape":{"dim":[{"size":"1"}]}}},"dtype":{"type":"DT_INT32"}}},
          {"name":"StatefulPartitionedCall/Generator/sequential_15/BasicShuffleUnitV2_4/strided_slice_1/stack_1","op":"Const","attr":{"value":{"tensor":{"dtype":"DT_INT32","tensorShape":{"dim":[{"size":"1"}]}}},"dtype":{"type":"DT_INT32"}}},
          {"name":"StatefulPartitionedCall/Generator/sequential_15/BasicShuffleUnitV2_4/strided_slice_1/stack_2","op":"Const","attr":{"value":{"tensor":{"dtype":"DT_INT32","tensorShape":{"dim":[{"size":"1"}]}}},"dtype":{"type":"DT_INT32"}}},
          {"name":"StatefulPartitionedCall/Generator/sequential_15/BasicShuffleUnitV2_4/Reshape_1/shape/3","op":"Const","attr":{"value":{"tensor":{"dtype":"DT_INT32","tensorShape":{}}},"dtype":{"type":"DT_INT32"}}},
          {"name":"StatefulPartitionedCall/Generator/sequential_15/BasicShuffleUnitV2_5/sequential_12/conv2d_17/Conv2D/ReadVariableOp","op":"Const","attr":{"dtype":{"type":"DT_FLOAT"},"value":{"tensor":{"dtype":"DT_FLOAT","tensorShape":{"dim":[{"size":"1"},{"size":"1"},{"size":"192"},{"size":"192"}]}}}}},
          {"name":"StatefulPartitionedCall/Generator/sequential_15/BasicShuffleUnitV2_5/sequential_12/instance_normalization_24/reduce_std/reduce_variance/Mean/reduction_indices","op":"Const","attr":{"dtype":{"type":"DT_INT32"},"value":{"tensor":{"dtype":"DT_INT32","tensorShape":{"dim":[{"size":"3"}]}}}}},
          {"name":"StatefulPartitionedCall/Generator/sequential_15/BasicShuffleUnitV2_5/sequential_12/instance_normalization_24/reduce_std/reduce_variance/Mean_1/reduction_indices","op":"Const","attr":{"value":{"tensor":{"dtype":"DT_INT32","tensorShape":{"dim":[{"size":"3"}]}}},"dtype":{"type":"DT_INT32"}}},
          {"name":"StatefulPartitionedCall/Generator/sequential_15/BasicShuffleUnitV2_5/sequential_12/instance_normalization_24/add/y","op":"Const","attr":{"value":{"tensor":{"dtype":"DT_FLOAT","tensorShape":{}}},"dtype":{"type":"DT_FLOAT"}}},
          {"name":"StatefulPartitionedCall/Generator/sequential_15/BasicShuffleUnitV2_5/sequential_12/instance_normalization_24/Reshape","op":"Const","attr":{"value":{"tensor":{"dtype":"DT_FLOAT","tensorShape":{"dim":[{"size":"1"},{"size":"1"},{"size":"1"},{"size":"1"}]}}},"dtype":{"type":"DT_FLOAT"}}},
          {"name":"StatefulPartitionedCall/Generator/sequential_15/BasicShuffleUnitV2_5/sequential_12/instance_normalization_24/Reshape_1","op":"Const","attr":{"dtype":{"type":"DT_FLOAT"},"value":{"tensor":{"dtype":"DT_FLOAT","tensorShape":{"dim":[{"size":"1"},{"size":"1"},{"size":"1"},{"size":"1"}]}}}}},
          {"name":"StatefulPartitionedCall/Generator/sequential_15/BasicShuffleUnitV2_5/sequential_12/depthwise_conv2d_9/depthwise/ReadVariableOp","op":"Const","attr":{"value":{"tensor":{"dtype":"DT_FLOAT","tensorShape":{"dim":[{"size":"3"},{"size":"3"},{"size":"192"},{"size":"1"}]}}},"dtype":{"type":"DT_FLOAT"}}},
          {"name":"StatefulPartitionedCall/Generator/sequential_15/BasicShuffleUnitV2_5/sequential_12/instance_normalization_25/reduce_std/reduce_variance/Mean/reduction_indices","op":"Const","attr":{"dtype":{"type":"DT_INT32"},"value":{"tensor":{"dtype":"DT_INT32","tensorShape":{"dim":[{"size":"3"}]}}}}},
          {"name":"StatefulPartitionedCall/Generator/sequential_15/BasicShuffleUnitV2_5/sequential_12/instance_normalization_25/reduce_std/reduce_variance/Mean_1/reduction_indices","op":"Const","attr":{"value":{"tensor":{"dtype":"DT_INT32","tensorShape":{"dim":[{"size":"3"}]}}},"dtype":{"type":"DT_INT32"}}},
          {"name":"StatefulPartitionedCall/Generator/sequential_15/BasicShuffleUnitV2_5/sequential_12/instance_normalization_25/add/y","op":"Const","attr":{"value":{"tensor":{"dtype":"DT_FLOAT","tensorShape":{}}},"dtype":{"type":"DT_FLOAT"}}},
          {"name":"StatefulPartitionedCall/Generator/sequential_15/BasicShuffleUnitV2_5/sequential_12/instance_normalization_25/Reshape","op":"Const","attr":{"value":{"tensor":{"dtype":"DT_FLOAT","tensorShape":{"dim":[{"size":"1"},{"size":"1"},{"size":"1"},{"size":"1"}]}}},"dtype":{"type":"DT_FLOAT"}}},
          {"name":"StatefulPartitionedCall/Generator/sequential_15/BasicShuffleUnitV2_5/sequential_12/instance_normalization_25/Reshape_1","op":"Const","attr":{"dtype":{"type":"DT_FLOAT"},"value":{"tensor":{"dtype":"DT_FLOAT","tensorShape":{"dim":[{"size":"1"},{"size":"1"},{"size":"1"},{"size":"1"}]}}}}},
          {"name":"StatefulPartitionedCall/Generator/sequential_15/BasicShuffleUnitV2_5/sequential_12/conv2d_18/Conv2D/ReadVariableOp","op":"Const","attr":{"dtype":{"type":"DT_FLOAT"},"value":{"tensor":{"dtype":"DT_FLOAT","tensorShape":{"dim":[{"size":"1"},{"size":"1"},{"size":"192"},{"size":"192"}]}}}}},
          {"name":"StatefulPartitionedCall/Generator/sequential_15/BasicShuffleUnitV2_5/sequential_12/instance_normalization_26/reduce_std/reduce_variance/Mean/reduction_indices","op":"Const","attr":{"value":{"tensor":{"dtype":"DT_INT32","tensorShape":{"dim":[{"size":"3"}]}}},"dtype":{"type":"DT_INT32"}}},
          {"name":"StatefulPartitionedCall/Generator/sequential_15/BasicShuffleUnitV2_5/sequential_12/instance_normalization_26/reduce_std/reduce_variance/Mean_1/reduction_indices","op":"Const","attr":{"value":{"tensor":{"dtype":"DT_INT32","tensorShape":{"dim":[{"size":"3"}]}}},"dtype":{"type":"DT_INT32"}}},
          {"name":"StatefulPartitionedCall/Generator/sequential_15/BasicShuffleUnitV2_5/sequential_12/instance_normalization_26/add/y","op":"Const","attr":{"value":{"tensor":{"dtype":"DT_FLOAT","tensorShape":{}}},"dtype":{"type":"DT_FLOAT"}}},
          {"name":"StatefulPartitionedCall/Generator/sequential_15/BasicShuffleUnitV2_5/sequential_12/instance_normalization_26/Reshape","op":"Const","attr":{"dtype":{"type":"DT_FLOAT"},"value":{"tensor":{"dtype":"DT_FLOAT","tensorShape":{"dim":[{"size":"1"},{"size":"1"},{"size":"1"},{"size":"1"}]}}}}},
          {"name":"StatefulPartitionedCall/Generator/sequential_15/BasicShuffleUnitV2_5/sequential_12/instance_normalization_26/Reshape_1","op":"Const","attr":{"value":{"tensor":{"dtype":"DT_FLOAT","tensorShape":{"dim":[{"size":"1"},{"size":"1"},{"size":"1"},{"size":"1"}]}}},"dtype":{"type":"DT_FLOAT"}}},
          {"name":"StatefulPartitionedCall/Generator/sequential_15/BasicShuffleUnitV2_5/concat/axis","op":"Const","attr":{"dtype":{"type":"DT_INT32"},"value":{"tensor":{"dtype":"DT_INT32","tensorShape":{}}}}},
          {"name":"StatefulPartitionedCall/Generator/sequential_15/BasicShuffleUnitV2_5/strided_slice_1/stack","op":"Const","attr":{"value":{"tensor":{"dtype":"DT_INT32","tensorShape":{"dim":[{"size":"1"}]}}},"dtype":{"type":"DT_INT32"}}},
          {"name":"StatefulPartitionedCall/Generator/sequential_15/BasicShuffleUnitV2_5/strided_slice_1/stack_1","op":"Const","attr":{"value":{"tensor":{"dtype":"DT_INT32","tensorShape":{"dim":[{"size":"1"}]}}},"dtype":{"type":"DT_INT32"}}},
          {"name":"StatefulPartitionedCall/Generator/sequential_15/BasicShuffleUnitV2_5/strided_slice_1/stack_2","op":"Const","attr":{"dtype":{"type":"DT_INT32"},"value":{"tensor":{"dtype":"DT_INT32","tensorShape":{"dim":[{"size":"1"}]}}}}},
          {"name":"StatefulPartitionedCall/Generator/sequential_15/BasicShuffleUnitV2_5/Reshape_1/shape/3","op":"Const","attr":{"value":{"tensor":{"dtype":"DT_INT32","tensorShape":{}}},"dtype":{"type":"DT_INT32"}}},
          {"name":"StatefulPartitionedCall/Generator/sequential_15/BasicShuffleUnitV2_6/sequential_13/conv2d_19/Conv2D/ReadVariableOp","op":"Const","attr":{"value":{"tensor":{"dtype":"DT_FLOAT","tensorShape":{"dim":[{"size":"1"},{"size":"1"},{"size":"192"},{"size":"192"}]}}},"dtype":{"type":"DT_FLOAT"}}},
          {"name":"StatefulPartitionedCall/Generator/sequential_15/BasicShuffleUnitV2_6/sequential_13/instance_normalization_27/reduce_std/reduce_variance/Mean/reduction_indices","op":"Const","attr":{"value":{"tensor":{"dtype":"DT_INT32","tensorShape":{"dim":[{"size":"3"}]}}},"dtype":{"type":"DT_INT32"}}},
          {"name":"StatefulPartitionedCall/Generator/sequential_15/BasicShuffleUnitV2_6/sequential_13/instance_normalization_27/reduce_std/reduce_variance/Mean_1/reduction_indices","op":"Const","attr":{"value":{"tensor":{"dtype":"DT_INT32","tensorShape":{"dim":[{"size":"3"}]}}},"dtype":{"type":"DT_INT32"}}},
          {"name":"StatefulPartitionedCall/Generator/sequential_15/BasicShuffleUnitV2_6/sequential_13/instance_normalization_27/add/y","op":"Const","attr":{"dtype":{"type":"DT_FLOAT"},"value":{"tensor":{"dtype":"DT_FLOAT","tensorShape":{}}}}},
          {"name":"StatefulPartitionedCall/Generator/sequential_15/BasicShuffleUnitV2_6/sequential_13/instance_normalization_27/Reshape","op":"Const","attr":{"value":{"tensor":{"dtype":"DT_FLOAT","tensorShape":{"dim":[{"size":"1"},{"size":"1"},{"size":"1"},{"size":"1"}]}}},"dtype":{"type":"DT_FLOAT"}}},
          {"name":"StatefulPartitionedCall/Generator/sequential_15/BasicShuffleUnitV2_6/sequential_13/instance_normalization_27/Reshape_1","op":"Const","attr":{"value":{"tensor":{"dtype":"DT_FLOAT","tensorShape":{"dim":[{"size":"1"},{"size":"1"},{"size":"1"},{"size":"1"}]}}},"dtype":{"type":"DT_FLOAT"}}},
          {"name":"StatefulPartitionedCall/Generator/sequential_15/BasicShuffleUnitV2_6/sequential_13/depthwise_conv2d_10/depthwise/ReadVariableOp","op":"Const","attr":{"value":{"tensor":{"dtype":"DT_FLOAT","tensorShape":{"dim":[{"size":"3"},{"size":"3"},{"size":"192"},{"size":"1"}]}}},"dtype":{"type":"DT_FLOAT"}}},
          {"name":"StatefulPartitionedCall/Generator/sequential_15/BasicShuffleUnitV2_6/sequential_13/instance_normalization_28/reduce_std/reduce_variance/Mean/reduction_indices","op":"Const","attr":{"value":{"tensor":{"dtype":"DT_INT32","tensorShape":{"dim":[{"size":"3"}]}}},"dtype":{"type":"DT_INT32"}}},
          {"name":"StatefulPartitionedCall/Generator/sequential_15/BasicShuffleUnitV2_6/sequential_13/instance_normalization_28/reduce_std/reduce_variance/Mean_1/reduction_indices","op":"Const","attr":{"dtype":{"type":"DT_INT32"},"value":{"tensor":{"dtype":"DT_INT32","tensorShape":{"dim":[{"size":"3"}]}}}}},
          {"name":"StatefulPartitionedCall/Generator/sequential_15/BasicShuffleUnitV2_6/sequential_13/instance_normalization_28/add/y","op":"Const","attr":{"value":{"tensor":{"dtype":"DT_FLOAT","tensorShape":{}}},"dtype":{"type":"DT_FLOAT"}}},
          {"name":"StatefulPartitionedCall/Generator/sequential_15/BasicShuffleUnitV2_6/sequential_13/instance_normalization_28/Reshape","op":"Const","attr":{"value":{"tensor":{"dtype":"DT_FLOAT","tensorShape":{"dim":[{"size":"1"},{"size":"1"},{"size":"1"},{"size":"1"}]}}},"dtype":{"type":"DT_FLOAT"}}},
          {"name":"StatefulPartitionedCall/Generator/sequential_15/BasicShuffleUnitV2_6/sequential_13/instance_normalization_28/Reshape_1","op":"Const","attr":{"dtype":{"type":"DT_FLOAT"},"value":{"tensor":{"dtype":"DT_FLOAT","tensorShape":{"dim":[{"size":"1"},{"size":"1"},{"size":"1"},{"size":"1"}]}}}}},
          {"name":"StatefulPartitionedCall/Generator/sequential_15/BasicShuffleUnitV2_6/sequential_13/conv2d_20/Conv2D/ReadVariableOp","op":"Const","attr":{"dtype":{"type":"DT_FLOAT"},"value":{"tensor":{"dtype":"DT_FLOAT","tensorShape":{"dim":[{"size":"1"},{"size":"1"},{"size":"192"},{"size":"192"}]}}}}},
          {"name":"StatefulPartitionedCall/Generator/sequential_15/BasicShuffleUnitV2_6/sequential_13/instance_normalization_29/reduce_std/reduce_variance/Mean/reduction_indices","op":"Const","attr":{"value":{"tensor":{"dtype":"DT_INT32","tensorShape":{"dim":[{"size":"3"}]}}},"dtype":{"type":"DT_INT32"}}},
          {"name":"StatefulPartitionedCall/Generator/sequential_15/BasicShuffleUnitV2_6/sequential_13/instance_normalization_29/reduce_std/reduce_variance/Mean_1/reduction_indices","op":"Const","attr":{"dtype":{"type":"DT_INT32"},"value":{"tensor":{"dtype":"DT_INT32","tensorShape":{"dim":[{"size":"3"}]}}}}},
          {"name":"StatefulPartitionedCall/Generator/sequential_15/BasicShuffleUnitV2_6/sequential_13/instance_normalization_29/add/y","op":"Const","attr":{"value":{"tensor":{"dtype":"DT_FLOAT","tensorShape":{}}},"dtype":{"type":"DT_FLOAT"}}},
          {"name":"StatefulPartitionedCall/Generator/sequential_15/BasicShuffleUnitV2_6/sequential_13/instance_normalization_29/Reshape","op":"Const","attr":{"value":{"tensor":{"dtype":"DT_FLOAT","tensorShape":{"dim":[{"size":"1"},{"size":"1"},{"size":"1"},{"size":"1"}]}}},"dtype":{"type":"DT_FLOAT"}}},
          {"name":"StatefulPartitionedCall/Generator/sequential_15/BasicShuffleUnitV2_6/sequential_13/instance_normalization_29/Reshape_1","op":"Const","attr":{"dtype":{"type":"DT_FLOAT"},"value":{"tensor":{"dtype":"DT_FLOAT","tensorShape":{"dim":[{"size":"1"},{"size":"1"},{"size":"1"},{"size":"1"}]}}}}},
          {"name":"StatefulPartitionedCall/Generator/sequential_15/BasicShuffleUnitV2_6/concat/axis","op":"Const","attr":{"value":{"tensor":{"dtype":"DT_INT32","tensorShape":{}}},"dtype":{"type":"DT_INT32"}}},
          {"name":"StatefulPartitionedCall/Generator/sequential_15/BasicShuffleUnitV2_6/strided_slice_1/stack","op":"Const","attr":{"value":{"tensor":{"dtype":"DT_INT32","tensorShape":{"dim":[{"size":"1"}]}}},"dtype":{"type":"DT_INT32"}}},
          {"name":"StatefulPartitionedCall/Generator/sequential_15/BasicShuffleUnitV2_6/strided_slice_1/stack_1","op":"Const","attr":{"value":{"tensor":{"dtype":"DT_INT32","tensorShape":{"dim":[{"size":"1"}]}}},"dtype":{"type":"DT_INT32"}}},
          {"name":"StatefulPartitionedCall/Generator/sequential_15/BasicShuffleUnitV2_6/strided_slice_1/stack_2","op":"Const","attr":{"dtype":{"type":"DT_INT32"},"value":{"tensor":{"dtype":"DT_INT32","tensorShape":{"dim":[{"size":"1"}]}}}}},
          {"name":"StatefulPartitionedCall/Generator/sequential_15/BasicShuffleUnitV2_6/Reshape_1/shape/3","op":"Const","attr":{"dtype":{"type":"DT_INT32"},"value":{"tensor":{"dtype":"DT_INT32","tensorShape":{}}}}},
          {"name":"StatefulPartitionedCall/Generator/sequential_15/BasicShuffleUnitV2_7/sequential_14/conv2d_21/Conv2D/ReadVariableOp","op":"Const","attr":{"dtype":{"type":"DT_FLOAT"},"value":{"tensor":{"dtype":"DT_FLOAT","tensorShape":{"dim":[{"size":"1"},{"size":"1"},{"size":"192"},{"size":"192"}]}}}}},
          {"name":"StatefulPartitionedCall/Generator/sequential_15/BasicShuffleUnitV2_7/sequential_14/instance_normalization_30/reduce_std/reduce_variance/Mean/reduction_indices","op":"Const","attr":{"dtype":{"type":"DT_INT32"},"value":{"tensor":{"dtype":"DT_INT32","tensorShape":{"dim":[{"size":"3"}]}}}}},
          {"name":"StatefulPartitionedCall/Generator/sequential_15/BasicShuffleUnitV2_7/sequential_14/instance_normalization_30/reduce_std/reduce_variance/Mean_1/reduction_indices","op":"Const","attr":{"dtype":{"type":"DT_INT32"},"value":{"tensor":{"dtype":"DT_INT32","tensorShape":{"dim":[{"size":"3"}]}}}}},
          {"name":"StatefulPartitionedCall/Generator/sequential_15/BasicShuffleUnitV2_7/sequential_14/instance_normalization_30/add/y","op":"Const","attr":{"dtype":{"type":"DT_FLOAT"},"value":{"tensor":{"dtype":"DT_FLOAT","tensorShape":{}}}}},
          {"name":"StatefulPartitionedCall/Generator/sequential_15/BasicShuffleUnitV2_7/sequential_14/instance_normalization_30/Reshape","op":"Const","attr":{"value":{"tensor":{"dtype":"DT_FLOAT","tensorShape":{"dim":[{"size":"1"},{"size":"1"},{"size":"1"},{"size":"1"}]}}},"dtype":{"type":"DT_FLOAT"}}},
          {"name":"StatefulPartitionedCall/Generator/sequential_15/BasicShuffleUnitV2_7/sequential_14/instance_normalization_30/Reshape_1","op":"Const","attr":{"dtype":{"type":"DT_FLOAT"},"value":{"tensor":{"dtype":"DT_FLOAT","tensorShape":{"dim":[{"size":"1"},{"size":"1"},{"size":"1"},{"size":"1"}]}}}}},
          {"name":"StatefulPartitionedCall/Generator/sequential_15/BasicShuffleUnitV2_7/sequential_14/depthwise_conv2d_11/depthwise/ReadVariableOp","op":"Const","attr":{"value":{"tensor":{"dtype":"DT_FLOAT","tensorShape":{"dim":[{"size":"3"},{"size":"3"},{"size":"192"},{"size":"1"}]}}},"dtype":{"type":"DT_FLOAT"}}},
          {"name":"StatefulPartitionedCall/Generator/sequential_15/BasicShuffleUnitV2_7/sequential_14/instance_normalization_31/reduce_std/reduce_variance/Mean/reduction_indices","op":"Const","attr":{"dtype":{"type":"DT_INT32"},"value":{"tensor":{"dtype":"DT_INT32","tensorShape":{"dim":[{"size":"3"}]}}}}},
          {"name":"StatefulPartitionedCall/Generator/sequential_15/BasicShuffleUnitV2_7/sequential_14/instance_normalization_31/reduce_std/reduce_variance/Mean_1/reduction_indices","op":"Const","attr":{"dtype":{"type":"DT_INT32"},"value":{"tensor":{"dtype":"DT_INT32","tensorShape":{"dim":[{"size":"3"}]}}}}},
          {"name":"StatefulPartitionedCall/Generator/sequential_15/BasicShuffleUnitV2_7/sequential_14/instance_normalization_31/add/y","op":"Const","attr":{"value":{"tensor":{"dtype":"DT_FLOAT","tensorShape":{}}},"dtype":{"type":"DT_FLOAT"}}},
          {"name":"StatefulPartitionedCall/Generator/sequential_15/BasicShuffleUnitV2_7/sequential_14/instance_normalization_31/Reshape","op":"Const","attr":{"value":{"tensor":{"dtype":"DT_FLOAT","tensorShape":{"dim":[{"size":"1"},{"size":"1"},{"size":"1"},{"size":"1"}]}}},"dtype":{"type":"DT_FLOAT"}}},
          {"name":"StatefulPartitionedCall/Generator/sequential_15/BasicShuffleUnitV2_7/sequential_14/instance_normalization_31/Reshape_1","op":"Const","attr":{"value":{"tensor":{"dtype":"DT_FLOAT","tensorShape":{"dim":[{"size":"1"},{"size":"1"},{"size":"1"},{"size":"1"}]}}},"dtype":{"type":"DT_FLOAT"}}},
          {"name":"StatefulPartitionedCall/Generator/sequential_15/BasicShuffleUnitV2_7/sequential_14/conv2d_22/Conv2D/ReadVariableOp","op":"Const","attr":{"value":{"tensor":{"dtype":"DT_FLOAT","tensorShape":{"dim":[{"size":"1"},{"size":"1"},{"size":"192"},{"size":"192"}]}}},"dtype":{"type":"DT_FLOAT"}}},
          {"name":"StatefulPartitionedCall/Generator/sequential_15/BasicShuffleUnitV2_7/sequential_14/instance_normalization_32/reduce_std/reduce_variance/Mean/reduction_indices","op":"Const","attr":{"value":{"tensor":{"dtype":"DT_INT32","tensorShape":{"dim":[{"size":"3"}]}}},"dtype":{"type":"DT_INT32"}}},
          {"name":"StatefulPartitionedCall/Generator/sequential_15/BasicShuffleUnitV2_7/sequential_14/instance_normalization_32/reduce_std/reduce_variance/Mean_1/reduction_indices","op":"Const","attr":{"dtype":{"type":"DT_INT32"},"value":{"tensor":{"dtype":"DT_INT32","tensorShape":{"dim":[{"size":"3"}]}}}}},
          {"name":"StatefulPartitionedCall/Generator/sequential_15/BasicShuffleUnitV2_7/sequential_14/instance_normalization_32/add/y","op":"Const","attr":{"value":{"tensor":{"dtype":"DT_FLOAT","tensorShape":{}}},"dtype":{"type":"DT_FLOAT"}}},
          {"name":"StatefulPartitionedCall/Generator/sequential_15/BasicShuffleUnitV2_7/sequential_14/instance_normalization_32/Reshape","op":"Const","attr":{"value":{"tensor":{"dtype":"DT_FLOAT","tensorShape":{"dim":[{"size":"1"},{"size":"1"},{"size":"1"},{"size":"1"}]}}},"dtype":{"type":"DT_FLOAT"}}},
          {"name":"StatefulPartitionedCall/Generator/sequential_15/BasicShuffleUnitV2_7/sequential_14/instance_normalization_32/Reshape_1","op":"Const","attr":{"dtype":{"type":"DT_FLOAT"},"value":{"tensor":{"dtype":"DT_FLOAT","tensorShape":{"dim":[{"size":"1"},{"size":"1"},{"size":"1"},{"size":"1"}]}}}}},
          {"name":"StatefulPartitionedCall/Generator/sequential_15/BasicShuffleUnitV2_7/concat/axis","op":"Const","attr":{"dtype":{"type":"DT_INT32"},"value":{"tensor":{"dtype":"DT_INT32","tensorShape":{}}}}},
          {"name":"StatefulPartitionedCall/Generator/sequential_15/BasicShuffleUnitV2_7/strided_slice_1/stack","op":"Const","attr":{"dtype":{"type":"DT_INT32"},"value":{"tensor":{"dtype":"DT_INT32","tensorShape":{"dim":[{"size":"1"}]}}}}},
          {"name":"StatefulPartitionedCall/Generator/sequential_15/BasicShuffleUnitV2_7/strided_slice_1/stack_1","op":"Const","attr":{"dtype":{"type":"DT_INT32"},"value":{"tensor":{"dtype":"DT_INT32","tensorShape":{"dim":[{"size":"1"}]}}}}},
          {"name":"StatefulPartitionedCall/Generator/sequential_15/BasicShuffleUnitV2_7/strided_slice_1/stack_2","op":"Const","attr":{"dtype":{"type":"DT_INT32"},"value":{"tensor":{"dtype":"DT_INT32","tensorShape":{"dim":[{"size":"1"}]}}}}},
          {"name":"StatefulPartitionedCall/Generator/sequential_15/BasicShuffleUnitV2_7/Reshape_1/shape/3","op":"Const","attr":{"value":{"tensor":{"dtype":"DT_INT32","tensorShape":{}}},"dtype":{"type":"DT_INT32"}}},
          {"name":"StatefulPartitionedCall/Generator/UpSampleConv/strided_slice/stack","op":"Const","attr":{"value":{"tensor":{"dtype":"DT_INT32","tensorShape":{"dim":[{"size":"1"}]}}},"dtype":{"type":"DT_INT32"}}},
          {"name":"StatefulPartitionedCall/Generator/UpSampleConv/strided_slice/stack_1","op":"Const","attr":{"value":{"tensor":{"dtype":"DT_INT32","tensorShape":{"dim":[{"size":"1"}]}}},"dtype":{"type":"DT_INT32"}}},
          {"name":"StatefulPartitionedCall/Generator/UpSampleConv/strided_slice/stack_2","op":"Const","attr":{"value":{"tensor":{"dtype":"DT_INT32","tensorShape":{"dim":[{"size":"1"}]}}},"dtype":{"type":"DT_INT32"}}},
          {"name":"StatefulPartitionedCall/Generator/UpSampleConv/Const","op":"Const","attr":{"dtype":{"type":"DT_INT32"},"value":{"tensor":{"dtype":"DT_INT32","tensorShape":{"dim":[{"size":"2"}]}}}}},
          {"name":"StatefulPartitionedCall/Generator/UpSampleConv/sequential_17/conv2d_23/Conv2D/ReadVariableOp","op":"Const","attr":{"dtype":{"type":"DT_FLOAT"},"value":{"tensor":{"dtype":"DT_FLOAT","tensorShape":{"dim":[{"size":"1"},{"size":"1"},{"size":"384"},{"size":"192"}]}}}}},
          {"name":"StatefulPartitionedCall/Generator/UpSampleConv/sequential_17/conv2d_23/BiasAdd/ReadVariableOp","op":"Const","attr":{"dtype":{"type":"DT_FLOAT"},"value":{"tensor":{"dtype":"DT_FLOAT","tensorShape":{"dim":[{"size":"192"}]}}}}},
          {"name":"StatefulPartitionedCall/Generator/UpSampleConv/sequential_17/BasicShuffleUnitV2/sequential_16/conv2d_24/Conv2D/ReadVariableOp","op":"Const","attr":{"value":{"tensor":{"dtype":"DT_FLOAT","tensorShape":{"dim":[{"size":"1"},{"size":"1"},{"size":"96"},{"size":"96"}]}}},"dtype":{"type":"DT_FLOAT"}}},
          {"name":"StatefulPartitionedCall/Generator/UpSampleConv/sequential_17/BasicShuffleUnitV2/sequential_16/instance_normalization_33/reduce_std/reduce_variance/Mean/reduction_indices","op":"Const","attr":{"value":{"tensor":{"dtype":"DT_INT32","tensorShape":{"dim":[{"size":"3"}]}}},"dtype":{"type":"DT_INT32"}}},
          {"name":"StatefulPartitionedCall/Generator/UpSampleConv/sequential_17/BasicShuffleUnitV2/sequential_16/instance_normalization_33/reduce_std/reduce_variance/Mean_1/reduction_indices","op":"Const","attr":{"dtype":{"type":"DT_INT32"},"value":{"tensor":{"dtype":"DT_INT32","tensorShape":{"dim":[{"size":"3"}]}}}}},
          {"name":"StatefulPartitionedCall/Generator/UpSampleConv/sequential_17/BasicShuffleUnitV2/sequential_16/instance_normalization_33/add/y","op":"Const","attr":{"dtype":{"type":"DT_FLOAT"},"value":{"tensor":{"dtype":"DT_FLOAT","tensorShape":{}}}}},
          {"name":"StatefulPartitionedCall/Generator/UpSampleConv/sequential_17/BasicShuffleUnitV2/sequential_16/instance_normalization_33/Reshape","op":"Const","attr":{"dtype":{"type":"DT_FLOAT"},"value":{"tensor":{"dtype":"DT_FLOAT","tensorShape":{"dim":[{"size":"1"},{"size":"1"},{"size":"1"},{"size":"1"}]}}}}},
          {"name":"StatefulPartitionedCall/Generator/UpSampleConv/sequential_17/BasicShuffleUnitV2/sequential_16/instance_normalization_33/Reshape_1","op":"Const","attr":{"value":{"tensor":{"dtype":"DT_FLOAT","tensorShape":{"dim":[{"size":"1"},{"size":"1"},{"size":"1"},{"size":"1"}]}}},"dtype":{"type":"DT_FLOAT"}}},
          {"name":"StatefulPartitionedCall/Generator/UpSampleConv/sequential_17/BasicShuffleUnitV2/sequential_16/depthwise_conv2d_12/depthwise/ReadVariableOp","op":"Const","attr":{"dtype":{"type":"DT_FLOAT"},"value":{"tensor":{"dtype":"DT_FLOAT","tensorShape":{"dim":[{"size":"3"},{"size":"3"},{"size":"96"},{"size":"1"}]}}}}},
          {"name":"StatefulPartitionedCall/Generator/UpSampleConv/sequential_17/BasicShuffleUnitV2/sequential_16/instance_normalization_34/reduce_std/reduce_variance/Mean/reduction_indices","op":"Const","attr":{"value":{"tensor":{"dtype":"DT_INT32","tensorShape":{"dim":[{"size":"3"}]}}},"dtype":{"type":"DT_INT32"}}},
          {"name":"StatefulPartitionedCall/Generator/UpSampleConv/sequential_17/BasicShuffleUnitV2/sequential_16/instance_normalization_34/reduce_std/reduce_variance/Mean_1/reduction_indices","op":"Const","attr":{"dtype":{"type":"DT_INT32"},"value":{"tensor":{"dtype":"DT_INT32","tensorShape":{"dim":[{"size":"3"}]}}}}},
          {"name":"StatefulPartitionedCall/Generator/UpSampleConv/sequential_17/BasicShuffleUnitV2/sequential_16/instance_normalization_34/add/y","op":"Const","attr":{"dtype":{"type":"DT_FLOAT"},"value":{"tensor":{"dtype":"DT_FLOAT","tensorShape":{}}}}},
          {"name":"StatefulPartitionedCall/Generator/UpSampleConv/sequential_17/BasicShuffleUnitV2/sequential_16/instance_normalization_34/Reshape","op":"Const","attr":{"value":{"tensor":{"dtype":"DT_FLOAT","tensorShape":{"dim":[{"size":"1"},{"size":"1"},{"size":"1"},{"size":"1"}]}}},"dtype":{"type":"DT_FLOAT"}}},
          {"name":"StatefulPartitionedCall/Generator/UpSampleConv/sequential_17/BasicShuffleUnitV2/sequential_16/instance_normalization_34/Reshape_1","op":"Const","attr":{"dtype":{"type":"DT_FLOAT"},"value":{"tensor":{"dtype":"DT_FLOAT","tensorShape":{"dim":[{"size":"1"},{"size":"1"},{"size":"1"},{"size":"1"}]}}}}},
          {"name":"StatefulPartitionedCall/Generator/UpSampleConv/sequential_17/BasicShuffleUnitV2/sequential_16/conv2d_25/Conv2D/ReadVariableOp","op":"Const","attr":{"dtype":{"type":"DT_FLOAT"},"value":{"tensor":{"dtype":"DT_FLOAT","tensorShape":{"dim":[{"size":"1"},{"size":"1"},{"size":"96"},{"size":"96"}]}}}}},
          {"name":"StatefulPartitionedCall/Generator/UpSampleConv/sequential_17/BasicShuffleUnitV2/sequential_16/instance_normalization_35/reduce_std/reduce_variance/Mean/reduction_indices","op":"Const","attr":{"value":{"tensor":{"dtype":"DT_INT32","tensorShape":{"dim":[{"size":"3"}]}}},"dtype":{"type":"DT_INT32"}}},
          {"name":"StatefulPartitionedCall/Generator/UpSampleConv/sequential_17/BasicShuffleUnitV2/sequential_16/instance_normalization_35/reduce_std/reduce_variance/Mean_1/reduction_indices","op":"Const","attr":{"dtype":{"type":"DT_INT32"},"value":{"tensor":{"dtype":"DT_INT32","tensorShape":{"dim":[{"size":"3"}]}}}}},
          {"name":"StatefulPartitionedCall/Generator/UpSampleConv/sequential_17/BasicShuffleUnitV2/sequential_16/instance_normalization_35/add/y","op":"Const","attr":{"value":{"tensor":{"dtype":"DT_FLOAT","tensorShape":{}}},"dtype":{"type":"DT_FLOAT"}}},
          {"name":"StatefulPartitionedCall/Generator/UpSampleConv/sequential_17/BasicShuffleUnitV2/sequential_16/instance_normalization_35/Reshape","op":"Const","attr":{"value":{"tensor":{"dtype":"DT_FLOAT","tensorShape":{"dim":[{"size":"1"},{"size":"1"},{"size":"1"},{"size":"1"}]}}},"dtype":{"type":"DT_FLOAT"}}},
          {"name":"StatefulPartitionedCall/Generator/UpSampleConv/sequential_17/BasicShuffleUnitV2/sequential_16/instance_normalization_35/Reshape_1","op":"Const","attr":{"value":{"tensor":{"dtype":"DT_FLOAT","tensorShape":{"dim":[{"size":"1"},{"size":"1"},{"size":"1"},{"size":"1"}]}}},"dtype":{"type":"DT_FLOAT"}}},
          {"name":"StatefulPartitionedCall/Generator/UpSampleConv/sequential_17/BasicShuffleUnitV2/concat/axis","op":"Const","attr":{"value":{"tensor":{"dtype":"DT_INT32","tensorShape":{}}},"dtype":{"type":"DT_INT32"}}},
          {"name":"StatefulPartitionedCall/Generator/UpSampleConv/sequential_17/BasicShuffleUnitV2/strided_slice_1/stack","op":"Const","attr":{"dtype":{"type":"DT_INT32"},"value":{"tensor":{"dtype":"DT_INT32","tensorShape":{"dim":[{"size":"1"}]}}}}},
          {"name":"StatefulPartitionedCall/Generator/UpSampleConv/sequential_17/BasicShuffleUnitV2/strided_slice_1/stack_1","op":"Const","attr":{"dtype":{"type":"DT_INT32"},"value":{"tensor":{"dtype":"DT_INT32","tensorShape":{"dim":[{"size":"1"}]}}}}},
          {"name":"StatefulPartitionedCall/Generator/UpSampleConv/sequential_17/BasicShuffleUnitV2/strided_slice_1/stack_2","op":"Const","attr":{"value":{"tensor":{"dtype":"DT_INT32","tensorShape":{"dim":[{"size":"1"}]}}},"dtype":{"type":"DT_INT32"}}},
          {"name":"StatefulPartitionedCall/Generator/UpSampleConv/sequential_17/BasicShuffleUnitV2/Reshape_1/shape/3","op":"Const","attr":{"value":{"tensor":{"dtype":"DT_INT32","tensorShape":{}}},"dtype":{"type":"DT_INT32"}}},
          {"name":"StatefulPartitionedCall/Generator/UpSampleConv_1/strided_slice/stack","op":"Const","attr":{"dtype":{"type":"DT_INT32"},"value":{"tensor":{"dtype":"DT_INT32","tensorShape":{"dim":[{"size":"1"}]}}}}},
          {"name":"StatefulPartitionedCall/Generator/UpSampleConv_1/strided_slice/stack_1","op":"Const","attr":{"dtype":{"type":"DT_INT32"},"value":{"tensor":{"dtype":"DT_INT32","tensorShape":{"dim":[{"size":"1"}]}}}}},
          {"name":"StatefulPartitionedCall/Generator/UpSampleConv_1/strided_slice/stack_2","op":"Const","attr":{"dtype":{"type":"DT_INT32"},"value":{"tensor":{"dtype":"DT_INT32","tensorShape":{"dim":[{"size":"1"}]}}}}},
          {"name":"StatefulPartitionedCall/Generator/UpSampleConv_1/Const","op":"Const","attr":{"value":{"tensor":{"dtype":"DT_INT32","tensorShape":{"dim":[{"size":"2"}]}}},"dtype":{"type":"DT_INT32"}}},
          {"name":"StatefulPartitionedCall/Generator/UpSampleConv_1/sequential_19/conv2d_26/Conv2D/ReadVariableOp","op":"Const","attr":{"dtype":{"type":"DT_FLOAT"},"value":{"tensor":{"dtype":"DT_FLOAT","tensorShape":{"dim":[{"size":"1"},{"size":"1"},{"size":"192"},{"size":"96"}]}}}}},
          {"name":"StatefulPartitionedCall/Generator/UpSampleConv_1/sequential_19/conv2d_26/BiasAdd/ReadVariableOp","op":"Const","attr":{"dtype":{"type":"DT_FLOAT"},"value":{"tensor":{"dtype":"DT_FLOAT","tensorShape":{"dim":[{"size":"96"}]}}}}},
          {"name":"StatefulPartitionedCall/Generator/UpSampleConv_1/sequential_19/BasicShuffleUnitV2/sequential_18/conv2d_27/Conv2D/ReadVariableOp","op":"Const","attr":{"value":{"tensor":{"dtype":"DT_FLOAT","tensorShape":{"dim":[{"size":"1"},{"size":"1"},{"size":"48"},{"size":"48"}]}}},"dtype":{"type":"DT_FLOAT"}}},
          {"name":"StatefulPartitionedCall/Generator/UpSampleConv_1/sequential_19/BasicShuffleUnitV2/sequential_18/instance_normalization_36/reduce_std/reduce_variance/Mean/reduction_indices","op":"Const","attr":{"dtype":{"type":"DT_INT32"},"value":{"tensor":{"dtype":"DT_INT32","tensorShape":{"dim":[{"size":"3"}]}}}}},
          {"name":"StatefulPartitionedCall/Generator/UpSampleConv_1/sequential_19/BasicShuffleUnitV2/sequential_18/instance_normalization_36/reduce_std/reduce_variance/Mean_1/reduction_indices","op":"Const","attr":{"dtype":{"type":"DT_INT32"},"value":{"tensor":{"dtype":"DT_INT32","tensorShape":{"dim":[{"size":"3"}]}}}}},
          {"name":"StatefulPartitionedCall/Generator/UpSampleConv_1/sequential_19/BasicShuffleUnitV2/sequential_18/instance_normalization_36/add/y","op":"Const","attr":{"dtype":{"type":"DT_FLOAT"},"value":{"tensor":{"dtype":"DT_FLOAT","tensorShape":{}}}}},
          {"name":"StatefulPartitionedCall/Generator/UpSampleConv_1/sequential_19/BasicShuffleUnitV2/sequential_18/instance_normalization_36/Reshape","op":"Const","attr":{"dtype":{"type":"DT_FLOAT"},"value":{"tensor":{"dtype":"DT_FLOAT","tensorShape":{"dim":[{"size":"1"},{"size":"1"},{"size":"1"},{"size":"1"}]}}}}},
          {"name":"StatefulPartitionedCall/Generator/UpSampleConv_1/sequential_19/BasicShuffleUnitV2/sequential_18/instance_normalization_36/Reshape_1","op":"Const","attr":{"dtype":{"type":"DT_FLOAT"},"value":{"tensor":{"dtype":"DT_FLOAT","tensorShape":{"dim":[{"size":"1"},{"size":"1"},{"size":"1"},{"size":"1"}]}}}}},
          {"name":"StatefulPartitionedCall/Generator/UpSampleConv_1/sequential_19/BasicShuffleUnitV2/sequential_18/depthwise_conv2d_13/depthwise/ReadVariableOp","op":"Const","attr":{"dtype":{"type":"DT_FLOAT"},"value":{"tensor":{"dtype":"DT_FLOAT","tensorShape":{"dim":[{"size":"3"},{"size":"3"},{"size":"48"},{"size":"1"}]}}}}},
          {"name":"StatefulPartitionedCall/Generator/UpSampleConv_1/sequential_19/BasicShuffleUnitV2/sequential_18/instance_normalization_37/reduce_std/reduce_variance/Mean/reduction_indices","op":"Const","attr":{"dtype":{"type":"DT_INT32"},"value":{"tensor":{"dtype":"DT_INT32","tensorShape":{"dim":[{"size":"3"}]}}}}},
          {"name":"StatefulPartitionedCall/Generator/UpSampleConv_1/sequential_19/BasicShuffleUnitV2/sequential_18/instance_normalization_37/reduce_std/reduce_variance/Mean_1/reduction_indices","op":"Const","attr":{"dtype":{"type":"DT_INT32"},"value":{"tensor":{"dtype":"DT_INT32","tensorShape":{"dim":[{"size":"3"}]}}}}},
          {"name":"StatefulPartitionedCall/Generator/UpSampleConv_1/sequential_19/BasicShuffleUnitV2/sequential_18/instance_normalization_37/add/y","op":"Const","attr":{"value":{"tensor":{"dtype":"DT_FLOAT","tensorShape":{}}},"dtype":{"type":"DT_FLOAT"}}},
          {"name":"StatefulPartitionedCall/Generator/UpSampleConv_1/sequential_19/BasicShuffleUnitV2/sequential_18/instance_normalization_37/Reshape","op":"Const","attr":{"value":{"tensor":{"dtype":"DT_FLOAT","tensorShape":{"dim":[{"size":"1"},{"size":"1"},{"size":"1"},{"size":"1"}]}}},"dtype":{"type":"DT_FLOAT"}}},
          {"name":"StatefulPartitionedCall/Generator/UpSampleConv_1/sequential_19/BasicShuffleUnitV2/sequential_18/instance_normalization_37/Reshape_1","op":"Const","attr":{"value":{"tensor":{"dtype":"DT_FLOAT","tensorShape":{"dim":[{"size":"1"},{"size":"1"},{"size":"1"},{"size":"1"}]}}},"dtype":{"type":"DT_FLOAT"}}},
          {"name":"StatefulPartitionedCall/Generator/UpSampleConv_1/sequential_19/BasicShuffleUnitV2/sequential_18/conv2d_28/Conv2D/ReadVariableOp","op":"Const","attr":{"dtype":{"type":"DT_FLOAT"},"value":{"tensor":{"dtype":"DT_FLOAT","tensorShape":{"dim":[{"size":"1"},{"size":"1"},{"size":"48"},{"size":"48"}]}}}}},
          {"name":"StatefulPartitionedCall/Generator/UpSampleConv_1/sequential_19/BasicShuffleUnitV2/sequential_18/instance_normalization_38/reduce_std/reduce_variance/Mean/reduction_indices","op":"Const","attr":{"dtype":{"type":"DT_INT32"},"value":{"tensor":{"dtype":"DT_INT32","tensorShape":{"dim":[{"size":"3"}]}}}}},
          {"name":"StatefulPartitionedCall/Generator/UpSampleConv_1/sequential_19/BasicShuffleUnitV2/sequential_18/instance_normalization_38/reduce_std/reduce_variance/Mean_1/reduction_indices","op":"Const","attr":{"value":{"tensor":{"dtype":"DT_INT32","tensorShape":{"dim":[{"size":"3"}]}}},"dtype":{"type":"DT_INT32"}}},
          {"name":"StatefulPartitionedCall/Generator/UpSampleConv_1/sequential_19/BasicShuffleUnitV2/sequential_18/instance_normalization_38/add/y","op":"Const","attr":{"dtype":{"type":"DT_FLOAT"},"value":{"tensor":{"dtype":"DT_FLOAT","tensorShape":{}}}}},
          {"name":"StatefulPartitionedCall/Generator/UpSampleConv_1/sequential_19/BasicShuffleUnitV2/sequential_18/instance_normalization_38/Reshape","op":"Const","attr":{"dtype":{"type":"DT_FLOAT"},"value":{"tensor":{"dtype":"DT_FLOAT","tensorShape":{"dim":[{"size":"1"},{"size":"1"},{"size":"1"},{"size":"1"}]}}}}},
          {"name":"StatefulPartitionedCall/Generator/UpSampleConv_1/sequential_19/BasicShuffleUnitV2/sequential_18/instance_normalization_38/Reshape_1","op":"Const","attr":{"dtype":{"type":"DT_FLOAT"},"value":{"tensor":{"dtype":"DT_FLOAT","tensorShape":{"dim":[{"size":"1"},{"size":"1"},{"size":"1"},{"size":"1"}]}}}}},
          {"name":"StatefulPartitionedCall/Generator/UpSampleConv_1/sequential_19/BasicShuffleUnitV2/concat/axis","op":"Const","attr":{"dtype":{"type":"DT_INT32"},"value":{"tensor":{"dtype":"DT_INT32","tensorShape":{}}}}},
          {"name":"StatefulPartitionedCall/Generator/UpSampleConv_1/sequential_19/BasicShuffleUnitV2/strided_slice_1/stack","op":"Const","attr":{"dtype":{"type":"DT_INT32"},"value":{"tensor":{"dtype":"DT_INT32","tensorShape":{"dim":[{"size":"1"}]}}}}},
          {"name":"StatefulPartitionedCall/Generator/UpSampleConv_1/sequential_19/BasicShuffleUnitV2/strided_slice_1/stack_1","op":"Const","attr":{"dtype":{"type":"DT_INT32"},"value":{"tensor":{"dtype":"DT_INT32","tensorShape":{"dim":[{"size":"1"}]}}}}},
          {"name":"StatefulPartitionedCall/Generator/UpSampleConv_1/sequential_19/BasicShuffleUnitV2/strided_slice_1/stack_2","op":"Const","attr":{"dtype":{"type":"DT_INT32"},"value":{"tensor":{"dtype":"DT_INT32","tensorShape":{"dim":[{"size":"1"}]}}}}},
          {"name":"StatefulPartitionedCall/Generator/UpSampleConv_1/sequential_19/BasicShuffleUnitV2/Reshape_1/shape/3","op":"Const","attr":{"value":{"tensor":{"dtype":"DT_INT32","tensorShape":{}}},"dtype":{"type":"DT_INT32"}}},
          {"name":"StatefulPartitionedCall/Generator/sequential_20/zero_padding2d_1/Pad/paddings","op":"Const","attr":{"dtype":{"type":"DT_INT32"},"value":{"tensor":{"dtype":"DT_INT32","tensorShape":{"dim":[{"size":"4"},{"size":"2"}]}}}}},
          {"name":"StatefulPartitionedCall/Generator/sequential_20/conv2d_29/Conv2D/ReadVariableOp","op":"Const","attr":{"value":{"tensor":{"dtype":"DT_FLOAT","tensorShape":{"dim":[{"size":"5"},{"size":"5"},{"size":"96"},{"size":"3"}]}}},"dtype":{"type":"DT_FLOAT"}}},
          {"name":"StatefulPartitionedCall/Generator/sequential_20/conv2d_29/BiasAdd/ReadVariableOp","op":"Const","attr":{"dtype":{"type":"DT_FLOAT"},"value":{"tensor":{"dtype":"DT_FLOAT","tensorShape":{"dim":[{"size":"3"}]}}}}},
          {"name":"input_1","op":"Placeholder","attr":{"shape":{"shape":{"dim":[{"size":"-1"},{"size":"-1"},{"size":"-1"},{"size":"3"}]}},"dtype":{"type":"DT_FLOAT"}}},
          {"name":"StatefulPartitionedCall/Generator/FlatConv/sequential/zero_padding2d/Pad","op":"Pad","input":["input_1","StatefulPartitionedCall/Generator/FlatConv/sequential/zero_padding2d/Pad/paddings"],"attr":{"Tpaddings":{"type":"DT_INT32"},"T":{"type":"DT_FLOAT"}}},
          {"name":"StatefulPartitionedCall/Generator/FlatConv/sequential/conv2d/BiasAdd","op":"_FusedConv2D","input":["StatefulPartitionedCall/Generator/FlatConv/sequential/zero_padding2d/Pad","StatefulPartitionedCall/Generator/FlatConv/sequential/conv2d/Conv2D/ReadVariableOp","StatefulPartitionedCall/Generator/FlatConv/sequential/conv2d/BiasAdd/ReadVariableOp"],"device":"/device:CPU:0","attr":{"strides":{"list":{"i":["1","1","1","1"]}},"data_format":{"s":"TkhXQw=="},"dilations":{"list":{"i":["1","1","1","1"]}},"explicit_paddings":{"list":{}},"padding":{"s":"VkFMSUQ="},"use_cudnn_on_gpu":{"b":true},"fused_ops":{"list":{"s":["Qmlhc0FkZA=="]}},"num_args":{"i":"1"},"epsilon":{"f":0},"T":{"type":"DT_FLOAT"}}},
          {"name":"StatefulPartitionedCall/Generator/FlatConv/sequential/instance_normalization/Mean","op":"Mean","input":["StatefulPartitionedCall/Generator/FlatConv/sequential/conv2d/BiasAdd","StatefulPartitionedCall/Generator/FlatConv/sequential/instance_normalization/Mean/reduction_indices"],"attr":{"Tidx":{"type":"DT_INT32"},"keep_dims":{"b":true},"T":{"type":"DT_FLOAT"}}},
          {"name":"StatefulPartitionedCall/Generator/FlatConv/sequential/instance_normalization/reduce_std/reduce_variance/Mean","op":"Mean","input":["StatefulPartitionedCall/Generator/FlatConv/sequential/conv2d/BiasAdd","StatefulPartitionedCall/Generator/FlatConv/sequential/instance_normalization/reduce_std/reduce_variance/Mean/reduction_indices"],"attr":{"keep_dims":{"b":true},"T":{"type":"DT_FLOAT"},"Tidx":{"type":"DT_INT32"}}},
          {"name":"StatefulPartitionedCall/Generator/FlatConv/sequential/instance_normalization/sub","op":"Sub","input":["StatefulPartitionedCall/Generator/FlatConv/sequential/conv2d/BiasAdd","StatefulPartitionedCall/Generator/FlatConv/sequential/instance_normalization/Mean"],"attr":{"T":{"type":"DT_FLOAT"}}},
          {"name":"StatefulPartitionedCall/Generator/FlatConv/sequential/instance_normalization/reduce_std/reduce_variance/sub","op":"SquaredDifference","input":["StatefulPartitionedCall/Generator/FlatConv/sequential/conv2d/BiasAdd","StatefulPartitionedCall/Generator/FlatConv/sequential/instance_normalization/reduce_std/reduce_variance/Mean"],"attr":{"T":{"type":"DT_FLOAT"}}},
          {"name":"StatefulPartitionedCall/Generator/FlatConv/sequential/instance_normalization/reduce_std/reduce_variance/Mean_1","op":"Mean","input":["StatefulPartitionedCall/Generator/FlatConv/sequential/instance_normalization/reduce_std/reduce_variance/sub","StatefulPartitionedCall/Generator/FlatConv/sequential/instance_normalization/reduce_std/reduce_variance/Mean_1/reduction_indices"],"attr":{"Tidx":{"type":"DT_INT32"},"keep_dims":{"b":true},"T":{"type":"DT_FLOAT"}}},
          {"name":"StatefulPartitionedCall/Generator/FlatConv/sequential/instance_normalization/reduce_std/Sqrt","op":"Sqrt","input":["StatefulPartitionedCall/Generator/FlatConv/sequential/instance_normalization/reduce_std/reduce_variance/Mean_1"],"attr":{"T":{"type":"DT_FLOAT"}}},
          {"name":"StatefulPartitionedCall/Generator/FlatConv/sequential/instance_normalization/add","op":"Add","input":["StatefulPartitionedCall/Generator/FlatConv/sequential/instance_normalization/reduce_std/Sqrt","StatefulPartitionedCall/Generator/FlatConv/sequential/instance_normalization/add/y"],"attr":{"T":{"type":"DT_FLOAT"}}},
          {"name":"StatefulPartitionedCall/Generator/FlatConv/sequential/instance_normalization/truediv","op":"RealDiv","input":["StatefulPartitionedCall/Generator/FlatConv/sequential/instance_normalization/sub","StatefulPartitionedCall/Generator/FlatConv/sequential/instance_normalization/add"],"attr":{"T":{"type":"DT_FLOAT"}}},
          {"name":"StatefulPartitionedCall/Generator/FlatConv/sequential/instance_normalization/mul","op":"Mul","input":["StatefulPartitionedCall/Generator/FlatConv/sequential/instance_normalization/truediv","StatefulPartitionedCall/Generator/FlatConv/sequential/instance_normalization/Reshape"],"attr":{"T":{"type":"DT_FLOAT"}}},
          {"name":"StatefulPartitionedCall/Generator/FlatConv/sequential/instance_normalization/add_1","op":"Add","input":["StatefulPartitionedCall/Generator/FlatConv/sequential/instance_normalization/mul","StatefulPartitionedCall/Generator/FlatConv/sequential/instance_normalization/Reshape_1"],"attr":{"T":{"type":"DT_FLOAT"}}},
          {"name":"StatefulPartitionedCall/Generator/FlatConv/sequential/re_lu/Relu","op":"Relu","input":["StatefulPartitionedCall/Generator/FlatConv/sequential/instance_normalization/add_1"],"attr":{"T":{"type":"DT_FLOAT"}}},
          {"name":"StatefulPartitionedCall/Generator/DownShuffleUnitV2/sequential_2/depthwise_conv2d_1/depthwise","op":"DepthwiseConv2dNative","input":["StatefulPartitionedCall/Generator/FlatConv/sequential/re_lu/Relu","StatefulPartitionedCall/Generator/DownShuffleUnitV2/sequential_2/depthwise_conv2d_1/depthwise/ReadVariableOp"],"attr":{"data_format":{"s":"TkhXQw=="},"dilations":{"list":{"i":["1","1","1","1"]}},"explicit_paddings":{"list":{}},"strides":{"list":{"i":["1","2","2","1"]}},"T":{"type":"DT_FLOAT"},"padding":{"s":"U0FNRQ=="}}},
          {"name":"StatefulPartitionedCall/Generator/DownShuffleUnitV2/sequential_1/conv2d_1/Conv2D","op":"Conv2D","input":["StatefulPartitionedCall/Generator/FlatConv/sequential/re_lu/Relu","StatefulPartitionedCall/Generator/DownShuffleUnitV2/sequential_1/conv2d_1/Conv2D/ReadVariableOp"],"device":"/device:CPU:0","attr":{"padding":{"s":"VkFMSUQ="},"data_format":{"s":"TkhXQw=="},"T":{"type":"DT_FLOAT"},"use_cudnn_on_gpu":{"b":true},"explicit_paddings":{"list":{}},"dilations":{"list":{"i":["1","1","1","1"]}},"strides":{"list":{"i":["1","1","1","1"]}}}},
          {"name":"StatefulPartitionedCall/Generator/DownShuffleUnitV2/sequential_2/instance_normalization_3/Mean","op":"Mean","input":["StatefulPartitionedCall/Generator/DownShuffleUnitV2/sequential_2/depthwise_conv2d_1/depthwise","StatefulPartitionedCall/Generator/DownShuffleUnitV2/sequential_2/instance_normalization_3/Mean/reduction_indices"],"attr":{"T":{"type":"DT_FLOAT"},"keep_dims":{"b":true},"Tidx":{"type":"DT_INT32"}}},
          {"name":"StatefulPartitionedCall/Generator/DownShuffleUnitV2/sequential_2/instance_normalization_3/reduce_std/reduce_variance/Mean","op":"Mean","input":["StatefulPartitionedCall/Generator/DownShuffleUnitV2/sequential_2/depthwise_conv2d_1/depthwise","StatefulPartitionedCall/Generator/DownShuffleUnitV2/sequential_2/instance_normalization_3/reduce_std/reduce_variance/Mean/reduction_indices"],"attr":{"Tidx":{"type":"DT_INT32"},"keep_dims":{"b":true},"T":{"type":"DT_FLOAT"}}},
          {"name":"StatefulPartitionedCall/Generator/DownShuffleUnitV2/sequential_1/instance_normalization_1/Mean","op":"Mean","input":["StatefulPartitionedCall/Generator/DownShuffleUnitV2/sequential_1/conv2d_1/Conv2D","StatefulPartitionedCall/Generator/DownShuffleUnitV2/sequential_1/instance_normalization_1/Mean/reduction_indices"],"attr":{"keep_dims":{"b":true},"T":{"type":"DT_FLOAT"},"Tidx":{"type":"DT_INT32"}}},
          {"name":"StatefulPartitionedCall/Generator/DownShuffleUnitV2/sequential_1/instance_normalization_1/reduce_std/reduce_variance/Mean","op":"Mean","input":["StatefulPartitionedCall/Generator/DownShuffleUnitV2/sequential_1/conv2d_1/Conv2D","StatefulPartitionedCall/Generator/DownShuffleUnitV2/sequential_1/instance_normalization_1/reduce_std/reduce_variance/Mean/reduction_indices"],"attr":{"T":{"type":"DT_FLOAT"},"Tidx":{"type":"DT_INT32"},"keep_dims":{"b":true}}},
          {"name":"StatefulPartitionedCall/Generator/DownShuffleUnitV2/sequential_2/instance_normalization_3/sub","op":"Sub","input":["StatefulPartitionedCall/Generator/DownShuffleUnitV2/sequential_2/depthwise_conv2d_1/depthwise","StatefulPartitionedCall/Generator/DownShuffleUnitV2/sequential_2/instance_normalization_3/Mean"],"attr":{"T":{"type":"DT_FLOAT"}}},
          {"name":"StatefulPartitionedCall/Generator/DownShuffleUnitV2/sequential_2/instance_normalization_3/reduce_std/reduce_variance/sub","op":"SquaredDifference","input":["StatefulPartitionedCall/Generator/DownShuffleUnitV2/sequential_2/depthwise_conv2d_1/depthwise","StatefulPartitionedCall/Generator/DownShuffleUnitV2/sequential_2/instance_normalization_3/reduce_std/reduce_variance/Mean"],"attr":{"T":{"type":"DT_FLOAT"}}},
          {"name":"StatefulPartitionedCall/Generator/DownShuffleUnitV2/sequential_1/instance_normalization_1/sub","op":"Sub","input":["StatefulPartitionedCall/Generator/DownShuffleUnitV2/sequential_1/conv2d_1/Conv2D","StatefulPartitionedCall/Generator/DownShuffleUnitV2/sequential_1/instance_normalization_1/Mean"],"attr":{"T":{"type":"DT_FLOAT"}}},
          {"name":"StatefulPartitionedCall/Generator/DownShuffleUnitV2/sequential_1/instance_normalization_1/reduce_std/reduce_variance/sub","op":"SquaredDifference","input":["StatefulPartitionedCall/Generator/DownShuffleUnitV2/sequential_1/conv2d_1/Conv2D","StatefulPartitionedCall/Generator/DownShuffleUnitV2/sequential_1/instance_normalization_1/reduce_std/reduce_variance/Mean"],"attr":{"T":{"type":"DT_FLOAT"}}},
          {"name":"StatefulPartitionedCall/Generator/DownShuffleUnitV2/sequential_2/instance_normalization_3/reduce_std/reduce_variance/Mean_1","op":"Mean","input":["StatefulPartitionedCall/Generator/DownShuffleUnitV2/sequential_2/instance_normalization_3/reduce_std/reduce_variance/sub","StatefulPartitionedCall/Generator/DownShuffleUnitV2/sequential_2/instance_normalization_3/reduce_std/reduce_variance/Mean_1/reduction_indices"],"attr":{"T":{"type":"DT_FLOAT"},"Tidx":{"type":"DT_INT32"},"keep_dims":{"b":true}}},
          {"name":"StatefulPartitionedCall/Generator/DownShuffleUnitV2/sequential_1/instance_normalization_1/reduce_std/reduce_variance/Mean_1","op":"Mean","input":["StatefulPartitionedCall/Generator/DownShuffleUnitV2/sequential_1/instance_normalization_1/reduce_std/reduce_variance/sub","StatefulPartitionedCall/Generator/DownShuffleUnitV2/sequential_1/instance_normalization_1/reduce_std/reduce_variance/Mean_1/reduction_indices"],"attr":{"Tidx":{"type":"DT_INT32"},"T":{"type":"DT_FLOAT"},"keep_dims":{"b":true}}},
          {"name":"StatefulPartitionedCall/Generator/DownShuffleUnitV2/sequential_2/instance_normalization_3/reduce_std/Sqrt","op":"Sqrt","input":["StatefulPartitionedCall/Generator/DownShuffleUnitV2/sequential_2/instance_normalization_3/reduce_std/reduce_variance/Mean_1"],"attr":{"T":{"type":"DT_FLOAT"}}},
          {"name":"StatefulPartitionedCall/Generator/DownShuffleUnitV2/sequential_1/instance_normalization_1/reduce_std/Sqrt","op":"Sqrt","input":["StatefulPartitionedCall/Generator/DownShuffleUnitV2/sequential_1/instance_normalization_1/reduce_std/reduce_variance/Mean_1"],"attr":{"T":{"type":"DT_FLOAT"}}},
          {"name":"StatefulPartitionedCall/Generator/DownShuffleUnitV2/sequential_2/instance_normalization_3/add","op":"Add","input":["StatefulPartitionedCall/Generator/DownShuffleUnitV2/sequential_2/instance_normalization_3/reduce_std/Sqrt","StatefulPartitionedCall/Generator/DownShuffleUnitV2/sequential_2/instance_normalization_3/add/y"],"attr":{"T":{"type":"DT_FLOAT"}}},
          {"name":"StatefulPartitionedCall/Generator/DownShuffleUnitV2/sequential_1/instance_normalization_1/add","op":"Add","input":["StatefulPartitionedCall/Generator/DownShuffleUnitV2/sequential_1/instance_normalization_1/reduce_std/Sqrt","StatefulPartitionedCall/Generator/DownShuffleUnitV2/sequential_1/instance_normalization_1/add/y"],"attr":{"T":{"type":"DT_FLOAT"}}},
          {"name":"StatefulPartitionedCall/Generator/DownShuffleUnitV2/sequential_2/instance_normalization_3/truediv","op":"RealDiv","input":["StatefulPartitionedCall/Generator/DownShuffleUnitV2/sequential_2/instance_normalization_3/sub","StatefulPartitionedCall/Generator/DownShuffleUnitV2/sequential_2/instance_normalization_3/add"],"attr":{"T":{"type":"DT_FLOAT"}}},
          {"name":"StatefulPartitionedCall/Generator/DownShuffleUnitV2/sequential_1/instance_normalization_1/truediv","op":"RealDiv","input":["StatefulPartitionedCall/Generator/DownShuffleUnitV2/sequential_1/instance_normalization_1/sub","StatefulPartitionedCall/Generator/DownShuffleUnitV2/sequential_1/instance_normalization_1/add"],"attr":{"T":{"type":"DT_FLOAT"}}},
          {"name":"StatefulPartitionedCall/Generator/DownShuffleUnitV2/sequential_2/instance_normalization_3/mul","op":"Mul","input":["StatefulPartitionedCall/Generator/DownShuffleUnitV2/sequential_2/instance_normalization_3/truediv","StatefulPartitionedCall/Generator/DownShuffleUnitV2/sequential_2/instance_normalization_3/Reshape"],"attr":{"T":{"type":"DT_FLOAT"}}},
          {"name":"StatefulPartitionedCall/Generator/DownShuffleUnitV2/sequential_1/instance_normalization_1/mul","op":"Mul","input":["StatefulPartitionedCall/Generator/DownShuffleUnitV2/sequential_1/instance_normalization_1/truediv","StatefulPartitionedCall/Generator/DownShuffleUnitV2/sequential_1/instance_normalization_1/Reshape"],"attr":{"T":{"type":"DT_FLOAT"}}},
          {"name":"StatefulPartitionedCall/Generator/DownShuffleUnitV2/sequential_2/instance_normalization_3/add_1","op":"Add","input":["StatefulPartitionedCall/Generator/DownShuffleUnitV2/sequential_2/instance_normalization_3/mul","StatefulPartitionedCall/Generator/DownShuffleUnitV2/sequential_2/instance_normalization_3/Reshape_1"],"attr":{"T":{"type":"DT_FLOAT"}}},
          {"name":"StatefulPartitionedCall/Generator/DownShuffleUnitV2/sequential_1/instance_normalization_1/add_1","op":"Add","input":["StatefulPartitionedCall/Generator/DownShuffleUnitV2/sequential_1/instance_normalization_1/mul","StatefulPartitionedCall/Generator/DownShuffleUnitV2/sequential_1/instance_normalization_1/Reshape_1"],"attr":{"T":{"type":"DT_FLOAT"}}},
          {"name":"StatefulPartitionedCall/Generator/DownShuffleUnitV2/sequential_2/conv2d_3/Conv2D","op":"Conv2D","input":["StatefulPartitionedCall/Generator/DownShuffleUnitV2/sequential_2/instance_normalization_3/add_1","StatefulPartitionedCall/Generator/DownShuffleUnitV2/sequential_2/conv2d_3/Conv2D/ReadVariableOp"],"device":"/device:CPU:0","attr":{"strides":{"list":{"i":["1","1","1","1"]}},"dilations":{"list":{"i":["1","1","1","1"]}},"use_cudnn_on_gpu":{"b":true},"T":{"type":"DT_FLOAT"},"data_format":{"s":"TkhXQw=="},"padding":{"s":"VkFMSUQ="},"explicit_paddings":{"list":{}}}},
          {"name":"StatefulPartitionedCall/Generator/DownShuffleUnitV2/sequential_1/re_lu_1/Relu","op":"Relu","input":["StatefulPartitionedCall/Generator/DownShuffleUnitV2/sequential_1/instance_normalization_1/add_1"],"attr":{"T":{"type":"DT_FLOAT"}}},
          {"name":"StatefulPartitionedCall/Generator/DownShuffleUnitV2/sequential_1/depthwise_conv2d/depthwise","op":"DepthwiseConv2dNative","input":["StatefulPartitionedCall/Generator/DownShuffleUnitV2/sequential_1/re_lu_1/Relu","StatefulPartitionedCall/Generator/DownShuffleUnitV2/sequential_1/depthwise_conv2d/depthwise/ReadVariableOp"],"attr":{"T":{"type":"DT_FLOAT"},"explicit_paddings":{"list":{}},"strides":{"list":{"i":["1","2","2","1"]}},"dilations":{"list":{"i":["1","1","1","1"]}},"padding":{"s":"U0FNRQ=="},"data_format":{"s":"TkhXQw=="}}},
          {"name":"StatefulPartitionedCall/Generator/DownShuffleUnitV2/sequential_1/instance_normalization_2/Mean","op":"Mean","input":["StatefulPartitionedCall/Generator/DownShuffleUnitV2/sequential_1/depthwise_conv2d/depthwise","StatefulPartitionedCall/Generator/DownShuffleUnitV2/sequential_1/instance_normalization_2/Mean/reduction_indices"],"attr":{"keep_dims":{"b":true},"T":{"type":"DT_FLOAT"},"Tidx":{"type":"DT_INT32"}}},
          {"name":"StatefulPartitionedCall/Generator/DownShuffleUnitV2/sequential_1/instance_normalization_2/reduce_std/reduce_variance/Mean","op":"Mean","input":["StatefulPartitionedCall/Generator/DownShuffleUnitV2/sequential_1/depthwise_conv2d/depthwise","StatefulPartitionedCall/Generator/DownShuffleUnitV2/sequential_1/instance_normalization_2/reduce_std/reduce_variance/Mean/reduction_indices"],"attr":{"keep_dims":{"b":true},"Tidx":{"type":"DT_INT32"},"T":{"type":"DT_FLOAT"}}},
          {"name":"StatefulPartitionedCall/Generator/DownShuffleUnitV2/sequential_1/instance_normalization_2/sub","op":"Sub","input":["StatefulPartitionedCall/Generator/DownShuffleUnitV2/sequential_1/depthwise_conv2d/depthwise","StatefulPartitionedCall/Generator/DownShuffleUnitV2/sequential_1/instance_normalization_2/Mean"],"attr":{"T":{"type":"DT_FLOAT"}}},
          {"name":"StatefulPartitionedCall/Generator/DownShuffleUnitV2/sequential_1/instance_normalization_2/reduce_std/reduce_variance/sub","op":"SquaredDifference","input":["StatefulPartitionedCall/Generator/DownShuffleUnitV2/sequential_1/depthwise_conv2d/depthwise","StatefulPartitionedCall/Generator/DownShuffleUnitV2/sequential_1/instance_normalization_2/reduce_std/reduce_variance/Mean"],"attr":{"T":{"type":"DT_FLOAT"}}},
          {"name":"StatefulPartitionedCall/Generator/DownShuffleUnitV2/sequential_1/instance_normalization_2/reduce_std/reduce_variance/Mean_1","op":"Mean","input":["StatefulPartitionedCall/Generator/DownShuffleUnitV2/sequential_1/instance_normalization_2/reduce_std/reduce_variance/sub","StatefulPartitionedCall/Generator/DownShuffleUnitV2/sequential_1/instance_normalization_2/reduce_std/reduce_variance/Mean_1/reduction_indices"],"attr":{"T":{"type":"DT_FLOAT"},"Tidx":{"type":"DT_INT32"},"keep_dims":{"b":true}}},
          {"name":"StatefulPartitionedCall/Generator/DownShuffleUnitV2/sequential_1/instance_normalization_2/reduce_std/Sqrt","op":"Sqrt","input":["StatefulPartitionedCall/Generator/DownShuffleUnitV2/sequential_1/instance_normalization_2/reduce_std/reduce_variance/Mean_1"],"attr":{"T":{"type":"DT_FLOAT"}}},
          {"name":"StatefulPartitionedCall/Generator/DownShuffleUnitV2/sequential_1/instance_normalization_2/add","op":"Add","input":["StatefulPartitionedCall/Generator/DownShuffleUnitV2/sequential_1/instance_normalization_2/reduce_std/Sqrt","StatefulPartitionedCall/Generator/DownShuffleUnitV2/sequential_1/instance_normalization_2/add/y"],"attr":{"T":{"type":"DT_FLOAT"}}},
          {"name":"StatefulPartitionedCall/Generator/DownShuffleUnitV2/sequential_1/instance_normalization_2/truediv","op":"RealDiv","input":["StatefulPartitionedCall/Generator/DownShuffleUnitV2/sequential_1/instance_normalization_2/sub","StatefulPartitionedCall/Generator/DownShuffleUnitV2/sequential_1/instance_normalization_2/add"],"attr":{"T":{"type":"DT_FLOAT"}}},
          {"name":"StatefulPartitionedCall/Generator/DownShuffleUnitV2/sequential_1/instance_normalization_2/mul","op":"Mul","input":["StatefulPartitionedCall/Generator/DownShuffleUnitV2/sequential_1/instance_normalization_2/truediv","StatefulPartitionedCall/Generator/DownShuffleUnitV2/sequential_1/instance_normalization_2/Reshape"],"attr":{"T":{"type":"DT_FLOAT"}}},
          {"name":"StatefulPartitionedCall/Generator/DownShuffleUnitV2/sequential_1/instance_normalization_2/add_1","op":"Add","input":["StatefulPartitionedCall/Generator/DownShuffleUnitV2/sequential_1/instance_normalization_2/mul","StatefulPartitionedCall/Generator/DownShuffleUnitV2/sequential_1/instance_normalization_2/Reshape_1"],"attr":{"T":{"type":"DT_FLOAT"}}},
          {"name":"StatefulPartitionedCall/Generator/DownShuffleUnitV2/sequential_1/conv2d_2/Conv2D","op":"Conv2D","input":["StatefulPartitionedCall/Generator/DownShuffleUnitV2/sequential_1/instance_normalization_2/add_1","StatefulPartitionedCall/Generator/DownShuffleUnitV2/sequential_1/conv2d_2/Conv2D/ReadVariableOp"],"device":"/device:CPU:0","attr":{"explicit_paddings":{"list":{}},"padding":{"s":"VkFMSUQ="},"data_format":{"s":"TkhXQw=="},"use_cudnn_on_gpu":{"b":true},"strides":{"list":{"i":["1","1","1","1"]}},"T":{"type":"DT_FLOAT"},"dilations":{"list":{"i":["1","1","1","1"]}}}},
          {"name":"StatefulPartitionedCall/Generator/DownShuffleUnitV2/concat","op":"ConcatV2","input":["StatefulPartitionedCall/Generator/DownShuffleUnitV2/sequential_2/conv2d_3/Conv2D","StatefulPartitionedCall/Generator/DownShuffleUnitV2/sequential_1/conv2d_2/Conv2D","StatefulPartitionedCall/Generator/DownShuffleUnitV2/concat/axis"],"attr":{"T":{"type":"DT_FLOAT"},"N":{"i":"2"},"Tidx":{"type":"DT_INT32"}}},
          {"name":"StatefulPartitionedCall/Generator/DownShuffleUnitV2/sequential_3/instance_normalization_4/Mean","op":"Mean","input":["StatefulPartitionedCall/Generator/DownShuffleUnitV2/concat","StatefulPartitionedCall/Generator/DownShuffleUnitV2/sequential_3/instance_normalization_4/Mean/reduction_indices"],"attr":{"Tidx":{"type":"DT_INT32"},"keep_dims":{"b":true},"T":{"type":"DT_FLOAT"}}},
          {"name":"StatefulPartitionedCall/Generator/DownShuffleUnitV2/sequential_3/instance_normalization_4/reduce_std/reduce_variance/Mean","op":"Mean","input":["StatefulPartitionedCall/Generator/DownShuffleUnitV2/concat","StatefulPartitionedCall/Generator/DownShuffleUnitV2/sequential_3/instance_normalization_4/reduce_std/reduce_variance/Mean/reduction_indices"],"attr":{"T":{"type":"DT_FLOAT"},"Tidx":{"type":"DT_INT32"},"keep_dims":{"b":true}}},
          {"name":"StatefulPartitionedCall/Generator/DownShuffleUnitV2/sequential_3/instance_normalization_4/sub","op":"Sub","input":["StatefulPartitionedCall/Generator/DownShuffleUnitV2/concat","StatefulPartitionedCall/Generator/DownShuffleUnitV2/sequential_3/instance_normalization_4/Mean"],"attr":{"T":{"type":"DT_FLOAT"}}},
          {"name":"StatefulPartitionedCall/Generator/DownShuffleUnitV2/sequential_3/instance_normalization_4/reduce_std/reduce_variance/sub","op":"SquaredDifference","input":["StatefulPartitionedCall/Generator/DownShuffleUnitV2/concat","StatefulPartitionedCall/Generator/DownShuffleUnitV2/sequential_3/instance_normalization_4/reduce_std/reduce_variance/Mean"],"attr":{"T":{"type":"DT_FLOAT"}}},
          {"name":"StatefulPartitionedCall/Generator/DownShuffleUnitV2/sequential_3/instance_normalization_4/reduce_std/reduce_variance/Mean_1","op":"Mean","input":["StatefulPartitionedCall/Generator/DownShuffleUnitV2/sequential_3/instance_normalization_4/reduce_std/reduce_variance/sub","StatefulPartitionedCall/Generator/DownShuffleUnitV2/sequential_3/instance_normalization_4/reduce_std/reduce_variance/Mean_1/reduction_indices"],"attr":{"Tidx":{"type":"DT_INT32"},"T":{"type":"DT_FLOAT"},"keep_dims":{"b":true}}},
          {"name":"StatefulPartitionedCall/Generator/DownShuffleUnitV2/sequential_3/instance_normalization_4/reduce_std/Sqrt","op":"Sqrt","input":["StatefulPartitionedCall/Generator/DownShuffleUnitV2/sequential_3/instance_normalization_4/reduce_std/reduce_variance/Mean_1"],"attr":{"T":{"type":"DT_FLOAT"}}},
          {"name":"StatefulPartitionedCall/Generator/DownShuffleUnitV2/sequential_3/instance_normalization_4/add","op":"Add","input":["StatefulPartitionedCall/Generator/DownShuffleUnitV2/sequential_3/instance_normalization_4/reduce_std/Sqrt","StatefulPartitionedCall/Generator/DownShuffleUnitV2/sequential_3/instance_normalization_4/add/y"],"attr":{"T":{"type":"DT_FLOAT"}}},
          {"name":"StatefulPartitionedCall/Generator/DownShuffleUnitV2/sequential_3/instance_normalization_4/truediv","op":"RealDiv","input":["StatefulPartitionedCall/Generator/DownShuffleUnitV2/sequential_3/instance_normalization_4/sub","StatefulPartitionedCall/Generator/DownShuffleUnitV2/sequential_3/instance_normalization_4/add"],"attr":{"T":{"type":"DT_FLOAT"}}},
          {"name":"StatefulPartitionedCall/Generator/DownShuffleUnitV2/sequential_3/instance_normalization_4/mul","op":"Mul","input":["StatefulPartitionedCall/Generator/DownShuffleUnitV2/sequential_3/instance_normalization_4/truediv","StatefulPartitionedCall/Generator/DownShuffleUnitV2/sequential_3/instance_normalization_4/Reshape"],"attr":{"T":{"type":"DT_FLOAT"}}},
          {"name":"StatefulPartitionedCall/Generator/DownShuffleUnitV2/sequential_3/instance_normalization_4/add_1","op":"Add","input":["StatefulPartitionedCall/Generator/DownShuffleUnitV2/sequential_3/instance_normalization_4/mul","StatefulPartitionedCall/Generator/DownShuffleUnitV2/sequential_3/instance_normalization_4/Reshape_1"],"attr":{"T":{"type":"DT_FLOAT"}}},
          {"name":"StatefulPartitionedCall/Generator/DownShuffleUnitV2/sequential_3/re_lu_2/Relu","op":"Relu","input":["StatefulPartitionedCall/Generator/DownShuffleUnitV2/sequential_3/instance_normalization_4/add_1"],"attr":{"T":{"type":"DT_FLOAT"}}},
          {"name":"StatefulPartitionedCall/Generator/DownShuffleUnitV2/Shape","op":"Shape","input":["StatefulPartitionedCall/Generator/DownShuffleUnitV2/sequential_3/re_lu_2/Relu"],"attr":{"T":{"type":"DT_FLOAT"},"out_type":{"type":"DT_INT32"}}},
          {"name":"StatefulPartitionedCall/Generator/DownShuffleUnitV2/strided_slice","op":"StridedSlice","input":["StatefulPartitionedCall/Generator/DownShuffleUnitV2/Shape","StatefulPartitionedCall/Generator/DownShuffleUnitV2/strided_slice/stack","StatefulPartitionedCall/Generator/DownShuffleUnitV2/strided_slice/stack_1","StatefulPartitionedCall/Generator/DownShuffleUnitV2/strided_slice/stack_2"],"attr":{"T":{"type":"DT_INT32"},"shrink_axis_mask":{"i":"1"},"Index":{"type":"DT_INT32"},"ellipsis_mask":{"i":"0"},"new_axis_mask":{"i":"0"},"end_mask":{"i":"0"},"begin_mask":{"i":"0"}}},
          {"name":"StatefulPartitionedCall/Generator/DownShuffleUnitV2/strided_slice_1","op":"StridedSlice","input":["StatefulPartitionedCall/Generator/DownShuffleUnitV2/Shape","StatefulPartitionedCall/Generator/DownShuffleUnitV2/strided_slice_1/stack","StatefulPartitionedCall/Generator/DownShuffleUnitV2/strided_slice_1/stack_1","StatefulPartitionedCall/Generator/DownShuffleUnitV2/strided_slice_1/stack_2"],"attr":{"shrink_axis_mask":{"i":"1"},"new_axis_mask":{"i":"0"},"T":{"type":"DT_INT32"},"begin_mask":{"i":"0"},"ellipsis_mask":{"i":"0"},"end_mask":{"i":"0"},"Index":{"type":"DT_INT32"}}},
          {"name":"StatefulPartitionedCall/Generator/DownShuffleUnitV2/Reshape/shape","op":"Pack","input":["StatefulPartitionedCall/Generator/DownShuffleUnitV2/Reshape/shape/0","StatefulPartitionedCall/Generator/DownShuffleUnitV2/strided_slice","StatefulPartitionedCall/Generator/DownShuffleUnitV2/strided_slice_1","StatefulPartitionedCall/Generator/DownShuffleUnitV2/Reshape/shape/3","StatefulPartitionedCall/Generator/DownShuffleUnitV2/Reshape/shape/4"],"attr":{"N":{"i":"5"},"T":{"type":"DT_INT32"},"axis":{"i":"0"}}},
          {"name":"StatefulPartitionedCall/Generator/DownShuffleUnitV2/Reshape_1/shape","op":"Pack","input":["StatefulPartitionedCall/Generator/DownShuffleUnitV2/Reshape_1/shape/0","StatefulPartitionedCall/Generator/DownShuffleUnitV2/strided_slice","StatefulPartitionedCall/Generator/DownShuffleUnitV2/strided_slice_1","StatefulPartitionedCall/Generator/DownShuffleUnitV2/Reshape_1/shape/3"],"attr":{"axis":{"i":"0"},"N":{"i":"4"},"T":{"type":"DT_INT32"}}},
          {"name":"StatefulPartitionedCall/Generator/DownShuffleUnitV2/Reshape","op":"Reshape","input":["StatefulPartitionedCall/Generator/DownShuffleUnitV2/sequential_3/re_lu_2/Relu","StatefulPartitionedCall/Generator/DownShuffleUnitV2/Reshape/shape"],"attr":{"T":{"type":"DT_FLOAT"},"Tshape":{"type":"DT_INT32"}}},
…
{"dtype":"float16","original_dtype":"float32"}},{"name":"StatefulPartitionedCall/Generator/DownShuffleUnitV2_1/sequential_4/instance_normalization_6/Reshape_1","shape":[1,1,1,1],"dtype":"float32","quantization":{"dtype":"float16","original_dtype":"float32"}},{"name":"StatefulPartitionedCall/Generator/DownShuffleUnitV2_1/sequential_4/conv2d_5/Conv2D/ReadVariableOp","shape":[1,1,192,192],"dtype":"float32","quantization":{"dtype":"float16","original_dtype":"float32"}},{"name":"StatefulPartitionedCall/Generator/DownShuffleUnitV2_1/concat/axis","shape":[],"dtype":"int32"},{"name":"StatefulPartitionedCall/Generator/DownShuffleUnitV2_1/sequential_6/instance_normalization_8/reduce_std/reduce_variance/Mean/reduction_indices","shape":[3],"dtype":"int32"},{"name":"StatefulPartitionedCall/Generator/DownShuffleUnitV2_1/sequential_6/instance_normalization_8/reduce_std/reduce_variance/Mean_1/reduction_indices","shape":[3],"dtype":"int32"},{"name":"StatefulPartitionedCall/Generator/DownShuffleUnitV2_1/sequential_6/instance_normalization_8/add/y","shape":[],"dtype":"float32","quantization":{"dtype":"float16","original_dtype":"float32"}},{"name":"StatefulPartitionedCall/Generator/DownShuffleUnitV2_1/sequential_6/instance_normalization_8/Reshape","shape":[1,1,1,1],"dtype":"float32","quantization":{"dtype":"float16","original_dtype":"float32"}},{"name":"StatefulPartitionedCall/Generator/DownShuffleUnitV2_1/sequential_6/instance_normalization_8/Reshape_1","shape":[1,1,1,1],"dtype":"float32","quantization":{"dtype":"float16","original_dtype":"float32"}},{"name":"StatefulPartitionedCall/Generator/DownShuffleUnitV2_1/strided_slice_1/stack","shape":[1],"dtype":"int32"},{"name":"StatefulPartitionedCall/Generator/DownShuffleUnitV2_1/strided_slice_1/stack_1","shape":[1],"dtype":"int32"},{"name":"StatefulPartitionedCall/Generator/DownShuffleUnitV2_1/strided_slice_1/stack_2","shape":[1],"dtype":"int32"},{"name":"StatefulPartitionedCall/Generator/DownShuffleUnitV2_1/Reshape_1/shape/3","shape":[],"dtype":"int32"},{"name":"StatefulPartitionedCall/Generator/sequential_15/BasicShuffleUnitV2/sequential_7/conv2d_7/Conv2D/ReadVariableOp","shape":[1,1,192,192],"dtype":"float32","quantization":{"dtype":"float16","original_dtype":"float32"}},{"name":"StatefulPartitionedCall/Generator/sequential_15/BasicShuffleUnitV2/sequential_7/instance_normalization_9/reduce_std/reduce_variance/Mean/reduction_indices","shape":[3],"dtype":"int32"},{"name":"StatefulPartitionedCall/Generator/sequential_15/BasicShuffleUnitV2/sequential_7/instance_normalization_9/reduce_std/reduce_variance/Mean_1/reduction_indices","shape":[3],"dtype":"int32"},{"name":"StatefulPartitionedCall/Generator/sequential_15/BasicShuffleUnitV2/sequential_7/instance_normalization_9/add/y","shape":[],"dtype":"float32","quantization":{"dtype":"float16","original_dtype":"float32"}},{"name":"StatefulPartitionedCall/Generator/sequential_15/BasicShuffleUnitV2/sequential_7/instance_normalization_9/Reshape","shape":[1,1,1,1],"dtype":"float32","quantization":{"dtype":"float16","original_dtype":"float32"}},{"name":"StatefulPartitionedCall/Generator/sequential_15/BasicShuffleUnitV2/sequential_7/instance_normalization_9/Reshape_1","shape":[1,1,1,1],"dtype":"float32","quantization":{"dtype":"float16","original_dtype":"float32"}},{"name":"StatefulPartitionedCall/Generator/sequential_15/BasicShuffleUnitV2/sequential_7/depthwise_conv2d_4/depthwise/ReadVariableOp","shape":[3,3,192,1],"dtype":"float32","quantization":{"dtype":"float16","original_dtype":"float32"}},{"name":"StatefulPartitionedCall/Generator/sequential_15/BasicShuffleUnitV2/sequential_7/instance_normalization_10/reduce_std/reduce_variance/Mean/reduction_indices","shape":[3],"dtype":"int32"},{"name":"StatefulPartitionedCall/Generator/sequential_15/BasicShuffleUnitV2/sequential_7/instance_normalization_10/reduce_std/reduce_variance/Mean_1/reduction_indices","shape":[3],"dtype":"int32"},{"name":"StatefulPartitionedCall/Generator/sequential_15/BasicShuffleUnitV2/sequential_7/instance_normalization_10/add/y","shape":[],"dtype":"float32","quantization":{"dtype":"float16","original_dtype":"float32"}},{"name":"StatefulPartitionedCall/Generator/sequential_15/BasicShuffleUnitV2/sequential_7/instance_normalization_10/Reshape","shape":[1,1,1,1],"dtype":"float32","quantization":{"dtype":"float16","original_dtype":"float32"}},{"name":"StatefulPartitionedCall/Generator/sequential_15/BasicShuffleUnitV2/sequential_7/instance_normalization_10/Reshape_1","shape":[1,1,1,1],"dtype":"float32","quantization":{"dtype":"float16","original_dtype":"float32"}},{"name":"StatefulPartitionedCall/Generator/sequential_15/BasicShuffleUnitV2/sequential_7/conv2d_8/Conv2D/ReadVariableOp","shape":[1,1,192,192],"dtype":"float32","quantization":{"dtype":"float16","original_dtype":"float32"}},{"name":"StatefulPartitionedCall/Generator/sequential_15/BasicShuffleUnitV2/sequential_7/instance_normalization_11/reduce_std/reduce_variance/Mean/reduction_indices","shape":[3],"dtype":"int32"},{"name":"StatefulPartitionedCall/Generator/sequential_15/BasicShuffleUnitV2/sequential_7/instance_normalization_11/reduce_std/reduce_variance/Mean_1/reduction_indices","shape":[3],"dtype":"int32"},{"name":"StatefulPartitionedCall/Generator/sequential_15/BasicShuffleUnitV2/sequential_7/instance_normalization_11/add/y","shape":[],"dtype":"float32","quantization":{"dtype":"float16","original_dtype":"float32"}},{"name":"StatefulPartitionedCall/Generator/sequential_15/BasicShuffleUnitV2/sequential_7/instance_normalization_11/Reshape","shape":[1,1,1,1],"dtype":"float32","quantization":{"dtype":"float16","original_dtype":"float32"}},{"name":"StatefulPartitionedCall/Generator/sequential_15/BasicShuffleUnitV2/sequential_7/instance_normalization_11/Reshape_1","shape":[1,1,1,1],"dtype":"float32","quantization":{"dtype":"float16","original_dtype":"float32"}},{"name":"StatefulPartitionedCall/Generator/sequential_15/BasicShuffleUnitV2/concat/axis","shape":[],"dtype":"int32"},{"name":"StatefulPartitionedCall/Generator/sequential_15/BasicShuffleUnitV2/strided_slice_1/stack","shape":[1],"dtype":"int32"},{"name":"StatefulPartitionedCall/Generator/sequential_15/BasicShuffleUnitV2/strided_slice_1/stack_1","shape":[1],"dtype":"int32"},{"name":"StatefulPartitionedCall/Generator/sequential_15/BasicShuffleUnitV2/strided_slice_1/stack_2","shape":[1],"dtype":"int32"},{"name":"StatefulPartitionedCall/Generator/sequential_15/BasicShuffleUnitV2/Reshape_1/shape/3","shape":[],"dtype":"int32"},{"name":"StatefulPartitionedCall/Generator/sequential_15/BasicShuffleUnitV2_1/sequential_8/conv2d_9/Conv2D/ReadVariableOp","shape":[1,1,192,192],"dtype":"float32","quantization":{"dtype":"float16","original_dtype":"float32"}},{"name":"StatefulPartitionedCall/Generator/sequential_15/BasicShuffleUnitV2_1/sequential_8/instance_normalization_12/reduce_std/reduce_variance/Mean/reduction_indices","shape":[3],"dtype":"int32"},{"name":"StatefulPartitionedCall/Generator/sequential_15/BasicShuffleUnitV2_1/sequential_8/instance_normalization_12/reduce_std/reduce_variance/Mean_1/reduction_indices","shape":[3],"dtype":"int32"},{"name":"StatefulPartitionedCall/Generator/sequential_15/BasicShuffleUnitV2_1/sequential_8/instance_normalization_12/add/y","shape":[],"dtype":"float32","quantization":{"dtype":"float16","original_dtype":"float32"}},{"name":"StatefulPartitionedCall/Generator/sequential_15/BasicShuffleUnitV2_1/sequential_8/instance_normalization_12/Reshape","shape":[1,1,1,1],"dtype":"float32","quantization":{"dtype":"float16","original_dtype":"float32"}},{"name":"StatefulPartitionedCall/Generator/sequential_15/BasicShuffleUnitV2_1/sequential_8/instance_normalization_12/Reshape_1","shape":[1,1,1,1],"dtype":"float32","quantization":{"dtype":"float16","original_dtype":"float32"}},{"name":"StatefulPartitionedCall/Generator/sequential_15/BasicShuffleUnitV2_1/sequential_8/depthwise_conv2d_5/depthwise/ReadVariableOp","shape":[3,3,192,1],"dtype":"float32","quantization":{"dtype":"float16","original_dtype":"float32"}},{"name":"StatefulPartitionedCall/Generator/sequential_15/BasicShuffleUnitV2_1/sequential_8/instance_normalization_13/reduce_std/reduce_variance/Mean/reduction_indices","shape":[3],"dtype":"int32"},{"name":"StatefulPartitionedCall/Generator/sequential_15/BasicShuffleUnitV2_1/sequential_8/instance_normalization_13/reduce_std/reduce_variance/Mean_1/reduction_indices","shape":[3],"dtype":"int32"},{"name":"StatefulPartitionedCall/Generator/sequential_15/BasicShuffleUnitV2_1/sequential_8/instance_normalization_13/add/y","shape":[],"dtype":"float32","quantization":{"dtype":"float16","original_dtype":"float32"}},{"name":"StatefulPartitionedCall/Generator/sequential_15/BasicShuffleUnitV2_1/sequential_8/instance_normalization_13/Reshape","shape":[1,1,1,1],"dtype":"float32","quantization":{"dtype":"float16","original_dtype":"float32"}},{"name":"StatefulPartitionedCall/Generator/sequential_15/BasicShuffleUnitV2_1/sequential_8/instance_normalization_13/Reshape_1","shape":[1,1,1,1],"dtype":"float32","quantization":{"dtype":"float16","original_dtype":"float32"}},{"name":"StatefulPartitionedCall/Generator/sequential_15/BasicShuffleUnitV2_1/sequential_8/conv2d_10/Conv2D/ReadVariableOp","shape":[1,1,192,192],"dtype":"float32","quantization":{"dtype":"float16","original_dtype":"float32"}},{"name":"StatefulPartitionedCall/Generator/sequential_15/BasicShuffleUnitV2_1/sequential_8/instance_normalization_14/reduce_std/reduce_variance/Mean/reduction_indices","shape":[3],"dtype":"int32"},{"name":"StatefulPartitionedCall/Generator/sequential_15/BasicShuffleUnitV2_1/sequential_8/instance_normalization_14/reduce_std/reduce_variance/Mean_1/reduction_indices","shape":[3],"dtype":"int32"},{"name":"StatefulPartitionedCall/Generator/sequential_15/BasicShuffleUnitV2_1/sequential_8/instance_normalization_14/add/y","shape":[],"dtype":"float32","quantization":{"dtype":"float16","original_dtype":"float32"}},{"name":"StatefulPartitionedCall/Generator/sequential_15/BasicShuffleUnitV2_1/sequential_8/instance_normalization_14/Reshape","shape":[1,1,1,1],"dtype":"float32","quantization":{"dtype":"float16","original_dtype":"float32"}},{"name":"StatefulPartitionedCall/Generator/sequential_15/BasicShuffleUnitV2_1/sequential_8/instance_normalization_14/Reshape_1","shape":[1,1,1,1],"dtype":"float32","quantization":{"dtype":"float16","original_dtype":"float32"}},{"name":"StatefulPartitionedCall/Generator/sequential_15/BasicShuffleUnitV2_1/concat/axis","shape":[],"dtype":"int32"},{"name":"StatefulPartitionedCall/Generator/sequential_15/BasicShuffleUnitV2_1/strided_slice_1/stack","shape":[1],"dtype":"int32"},{"name":"StatefulPartitionedCall/Generator/sequential_15/BasicShuffleUnitV2_1/strided_slice_1/stack_1","shape":[1],"dtype":"int32"},{"name":"StatefulPartitionedCall/Generator/sequential_15/BasicShuffleUnitV2_1/strided_slice_1/stack_2","shape":[1],"dtype":"int32"},{"name":"StatefulPartitionedCall/Generator/sequential_15/BasicShuffleUnitV2_1/Reshape_1/shape/3","shape":[],"dtype":"int32"},{"name":"StatefulPartitionedCall/Generator/sequential_15/BasicShuffleUnitV2_2/sequential_9/conv2d_11/Conv2D/ReadVariableOp","shape":[1,1,192,192],"dtype":"float32","quantization":{"dtype":"float16","original_dtype":"float32"}},{"name":"StatefulPartitionedCall/Generator/sequential_15/BasicShuffleUnitV2_2/sequential_9/instance_normalization_15/reduce_std/reduce_variance/Mean/reduction_indices","shape":[3],"dtype":"int32"},{"name":"StatefulPartitionedCall/Generator/sequential_15/BasicShuffleUnitV2_2/sequential_9/instance_normalization_15/reduce_std/reduce_variance/Mean_1/reduction_indices","shape":[3],"dtype":"int32"},{"name":"StatefulPartitionedCall/Generator/sequential_15/BasicShuffleUnitV2_2/sequential_9/instance_normalization_15/add/y","shape":[],"dtype":"float32","quantization":{"dtype":"float16","original_dtype":"float32"}},{"name":"StatefulPartitionedCall/Generator/sequential_15/BasicShuffleUnitV2_2/sequential_9/instance_normalization_15/Reshape","shape":[1,1,1,1],"dtype":"float32","quantization":{"dtype":"float16","original_dtype":"float32"}},{"name":"StatefulPartitionedCall/Generator/sequential_15/BasicShuffleUnitV2_2/sequential_9/instance_normalization_15/Reshape_1","shape":[1,1,1,1],"dtype":"float32","quantization":{"dtype":"float16","original_dtype":"float32"}},{"name":"StatefulPartitionedCall/Generator/sequential_15/BasicShuffleUnitV2_2/sequential_9/depthwise_conv2d_6/depthwise/ReadVariableOp","shape":[3,3,192,1],"dtype":"float32","quantization":{"dtype":"float16","original_dtype":"float32"}},{"name":"StatefulPartitionedCall/Generator/sequential_15/BasicShuffleUnitV2_2/sequential_9/instance_normalization_16/reduce_std/reduce_variance/Mean/reduction_indices","shape":[3],"dtype":"int32"},{"name":"StatefulPartitionedCall/Generator/sequential_15/BasicShuffleUnitV2_2/sequential_9/instance_normalization_16/reduce_std/reduce_variance/Mean_1/reduction_indices","shape":[3],"dtype":"int32"},{"name":"StatefulPartitionedCall/Generator/sequential_15/BasicShuffleUnitV2_2/sequential_9/instance_normalization_16/add/y","shape":[],"dtype":"float32","quantization":{"dtype":"float16","original_dtype":"float32"}},{"name":"StatefulPartitionedCall/Generator/sequential_15/BasicShuffleUnitV2_2/sequential_9/instance_normalization_16/Reshape","shape":[1,1,1,1],"dtype":"float32","quantization":{"dtype":"float16","original_dtype":"float32"}},{"name":"StatefulPartitionedCall/Generator/sequential_15/BasicShuffleUnitV2_2/sequential_9/instance_normalization_16/Reshape_1","shape":[1,1,1,1],"dtype":"float32","quantization":{"dtype":"float16","original_dtype":"float32"}},{"name":"StatefulPartitionedCall/Generator/sequential_15/BasicShuffleUnitV2_2/sequential_9/conv2d_12/Conv2D/ReadVariableOp","shape":[1,1,192,192],"dtype":"float32","quantization":{"dtype":"float16","original_dtype":"float32"}},{"name":"StatefulPartitionedCall/Generator/sequential_15/BasicShuffleUnitV2_2/sequential_9/instance_normalization_17/reduce_std/reduce_variance/Mean/reduction_indices","shape":[3],"dtype":"int32"},{"name":"StatefulPartitionedCall/Generator/sequential_15/BasicShuffleUnitV2_2/sequential_9/instance_normalization_17/reduce_std/reduce_variance/Mean_1/reduction_indices","shape":[3],"dtype":"int32"},{"name":"StatefulPartitionedCall/Generator/sequential_15/BasicShuffleUnitV2_2/sequential_9/instance_normalization_17/add/y","shape":[],"dtype":"float32","quantization":{"dtype":"float16","original_dtype":"float32"}},{"name":"StatefulPartitionedCall/Generator/sequential_15/BasicShuffleUnitV2_2/sequential_9/instance_normalization_17/Reshape","shape":[1,1,1,1],"dtype":"float32","quantization":{"dtype":"float16","original_dtype":"float32"}},{"name":"StatefulPartitionedCall/Generator/sequential_15/BasicShuffleUnitV2_2/sequential_9/instance_normalization_17/Reshape_1","shape":[1,1,1,1],"dtype":"float32","quantization":{"dtype":"float16","original_dtype":"float32"}},{"name":"StatefulPartitionedCall/Generator/sequential_15/BasicShuffleUnitV2_2/concat/axis","shape":[],"dtype":"int32"},{"name":"StatefulPartitionedCall/Generator/sequential_15/BasicShuffleUnitV2_2/strided_slice_1/stack","shape":[1],"dtype":"int32"},{"name":"StatefulPartitionedCall/Generator/sequential_15/BasicShuffleUnitV2_2/strided_slice_1/stack_1","shape":[1],"dtype":"int32"},{"name":"StatefulPartitionedCall/Generator/sequential_15/BasicShuffleUnitV2_2/strided_slice_1/stack_2","shape":[1],"dtype":"int32"},{"name":"StatefulPartitionedCall/Generator/sequential_15/BasicShuffleUnitV2_2/Reshape_1/shape/3","shape":[],"dtype":"int32"},{"name":"StatefulPartitionedCall/Generator/sequential_15/BasicShuffleUnitV2_3/sequential_10/conv2d_13/Conv2D/ReadVariableOp","shape":[1,1,192,192],"dtype":"float32","quantization":{"dtype":"float16","original_dtype":"float32"}},{"name":"StatefulPartitionedCall/Generator/sequential_15/BasicShuffleUnitV2_3/sequential_10/instance_normalization_18/reduce_std/reduce_variance/Mean/reduction_indices","shape":[3],"dtype":"int32"},{"name":"StatefulPartitionedCall/Generator/sequential_15/BasicShuffleUnitV2_3/sequential_10/instance_normalization_18/reduce_std/reduce_variance/Mean_1/reduction_indices","shape":[3],"dtype":"int32"},{"name":"StatefulPartitionedCall/Generator/sequential_15/BasicShuffleUnitV2_3/sequential_10/instance_normalization_18/add/y","shape":[],"dtype":"float32","quantization":{"dtype":"float16","original_dtype":"float32"}},{"name":"StatefulPartitionedCall/Generator/sequential_15/BasicShuffleUnitV2_3/sequential_10/instance_normalization_18/Reshape","shape":[1,1,1,1],"dtype":"float32","quantization":{"dtype":"float16","original_dtype":"float32"}},{"name":"StatefulPartitionedCall/Generator/sequential_15/BasicShuffleUnitV2_3/sequential_10/instance_normalization_18/Reshape_1","shape":[1,1,1,1],"dtype":"float32","quantization":{"dtype":"float16","original_dtype":"float32"}},{"name":"StatefulPartitionedCall/Generator/sequential_15/BasicShuffleUnitV2_3/sequential_10/depthwise_conv2d_7/depthwise/ReadVariableOp","shape":[3,3,192,1],"dtype":"float32","quantization":{"dtype":"float16","original_dtype":"float32"}},{"name":"StatefulPartitionedCall/Generator/sequential_15/BasicShuffleUnitV2_3/sequential_10/instance_normalization_19/reduce_std/reduce_variance/Mean/reduction_indices","shape":[3],"dtype":"int32"},{"name":"StatefulPartitionedCall/Generator/sequential_15/BasicShuffleUnitV2_3/sequential_10/instance_normalization_19/reduce_std/reduce_variance/Mean_1/reduction_indices","shape":[3],"dtype":"int32"},{"name":"StatefulPartitionedCall/Generator/sequential_15/BasicShuffleUnitV2_3/sequential_10/instance_normalization_19/add/y","shape":[],"dtype":"float32","quantization":{"dtype":"float16","original_dtype":"float32"}},{"name":"StatefulPartitionedCall/Generator/sequential_15/BasicShuffleUnitV2_3/sequential_10/instance_normalization_19/Reshape","shape":[1,1,1,1],"dtype":"float32","quantization":{"dtype":"float16","original_dtype":"float32"}},{"name":"StatefulPartitionedCall/Generator/sequential_15/BasicShuffleUnitV2_3/sequential_10/instance_normalization_19/Reshape_1","shape":[1,1,1,1],"dtype":"float32","quantization":{"dtype":"float16","original_dtype":"float32"}},{"name":"StatefulPartitionedCall/Generator/sequential_15/BasicShuffleUnitV2_3/sequential_10/conv2d_14/Conv2D/ReadVariableOp","shape":[1,1,192,192],"dtype":"float32","quantization":{"dtype":"float16","original_dtype":"float32"}},{"name":"StatefulPartitionedCall/Generator/sequential_15/BasicShuffleUnitV2_3/sequential_10/instance_normalization_20/reduce_std/reduce_variance/Mean/reduction_indices","shape":[3],"dtype":"int32"},{"name":"StatefulPartitionedCall/Generator/sequential_15/BasicShuffleUnitV2_3/sequential_10/instance_normalization_20/reduce_std/reduce_variance/Mean_1/reduction_indices","shape":[3],"dtype":"int32"},{"name":"StatefulPartitionedCall/Generator/sequential_15/BasicShuffleUnitV2_3/sequential_10/instance_normalization_20/add/y","shape":[],"dtype":"float32","quantization":{"dtype":"float16","original_dtype":"float32"}},{"name":"StatefulPartitionedCall/Generator/sequential_15/BasicShuffleUnitV2_3/sequential_10/instance_normalization_20/Reshape","shape":[1,1,1,1],"dtype":"float32","quantization":{"dtype":"float16","original_dtype":"float32"}},{"name":"StatefulPartitionedCall/Generator/sequential_15/BasicShuffleUnitV2_3/sequential_10/instance_normalization_20/Reshape_1","shape":[1,1,1,1],"dtype":"float32","quantization":{"dtype":"float16","original_dtype":"float32"}},{"name":"StatefulPartitionedCall/Generator/sequential_15/BasicShuffleUnitV2_3/concat/axis","shape":[],"dtype":"int32"},{"name":"StatefulPartitionedCall/Generator/sequential_15/BasicShuffleUnitV2_3/strided_slice_1/stack","shape":[1],"dtype":"int32"},{"name":"StatefulPartitionedCall/Generator/sequential_15/BasicShuffleUnitV2_3/strided_slice_1/stack_1","shape":[1],"dtype":"int32"},{"name":"StatefulPartitionedCall/Generator/sequential_15/BasicShuffleUnitV2_3/strided_slice_1/stack_2","shape":[1],"dtype":"int32"},{"name":"StatefulPartitionedCall/Generator/sequential_15/BasicShuffleUnitV2_3/Reshape_1/shape/3","shape":[],"dtype":"int32"},{"name":"StatefulPartitionedCall/Generator/sequential_15/BasicShuffleUnitV2_4/sequential_11/conv2d_15/Conv2D/ReadVariableOp","shape":[1,1,192,192],"dtype":"float32","quantization":{"dtype":"float16","original_dtype":"float32"}},{"name":"StatefulPartitionedCall/Generator/sequential_15/BasicShuffleUnitV2_4/sequential_11/instance_normalization_21/reduce_std/reduce_variance/Mean/reduction_indices","shape":[3],"dtype":"int32"},{"name":"StatefulPartitionedCall/Generator/sequential_15/BasicShuffleUnitV2_4/sequential_11/instance_normalization_21/reduce_std/reduce_variance/Mean_1/reduction_indices","shape":[3],"dtype":"int32"},{"name":"StatefulPartitionedCall/Generator/sequential_15/BasicShuffleUnitV2_4/sequential_11/instance_normalization_21/add/y","shape":[],"dtype":"float32","quantization":{"dtype":"float16","original_dtype":"float32"}},{"name":"StatefulPartitionedCall/Generator/sequential_15/BasicShuffleUnitV2_4/sequential_11/instance_normalization_21/Reshape","shape":[1,1,1,1],"dtype":"float32","quantization":{"dtype":"float16","original_dtype":"float32"}},{"name":"StatefulPartitionedCall/Generator/sequential_15/BasicShuffleUnitV2_4/sequential_11/instance_normalization_21/Reshape_1","shape":[1,1,1,1],"dtype":"float32","quantization":{"dtype":"float16","original_dtype":"float32"}},{"name":"StatefulPartitionedCall/Generator/sequential_15/BasicShuffleUnitV2_4/sequential_11/depthwise_conv2d_8/depthwise/ReadVariableOp","shape":[3,3,192,1],"dtype":"float32","quantization":{"dtype":"float16","original_dtype":"float32"}},{"name":"StatefulPartitionedCall/Generator/sequential_15/BasicShuffleUnitV2_4/sequential_11/instance_normalization_22/reduce_std/reduce_variance/Mean/reduction_indices","shape":[3],"dtype":"int32"},{"name":"StatefulPartitionedCall/Generator/sequential_15/BasicShuffleUnitV2_4/sequential_11/instance_normalization_22/reduce_std/reduce_variance/Mean_1/reduction_indices","shape":[3],"dtype":"int32"},{"name":"StatefulPartitionedCall/Generator/sequential_15/BasicShuffleUnitV2_4/sequential_11/instance_normalization_22/add/y","shape":[],"dtype":"float32","quantization":{"dtype":"float16","original_dtype":"float32"}},{"name":"StatefulPartitionedCall/Generator/sequential_15/BasicShuffleUnitV2_4/sequential_11/instance_normalization_22/Reshape","shape":[1,1,1,1],"dtype":"float32","quantization":{"dtype":"float16","original_dtype":"float32"}},{"name":"StatefulPartitionedCall/Generator/sequential_15/BasicShuffleUnitV2_4/sequential_11/instance_normalization_22/Reshape_1","shape":[1,1,1,1],"dtype":"float32","quantization":{"dtype":"float16","original_dtype":"float32"}},{"name":"StatefulPartitionedCall/Generator/sequential_15/BasicShuffleUnitV2_4/sequential_11/conv2d_16/Conv2D/ReadVariableOp","shape":[1,1,192,192],"dtype":"float32","quantization":{"dtype":"float16","original_dtype":"float32"}},{"name":"StatefulPartitionedCall/Generator/sequential_15/BasicShuffleUnitV2_4/sequential_11/instance_normalization_23/reduce_std/reduce_variance/Mean/reduction_indices","shape":[3],"dtype":"int32"},{"name":"StatefulPartitionedCall/Generator/sequential_15/BasicShuffleUnitV2_4/sequential_11/instance_normalization_23/reduce_std/reduce_variance/Mean_1/reduction_indices","shape":[3],"dtype":"int32"},{"name":"StatefulPartitionedCall/Generator/sequential_15/BasicShuffleUnitV2_4/sequential_11/instance_normalization_23/add/y","shape":[],"dtype":"float32","quantization":{"dtype":"float16","original_dtype":"float32"}},{"name":"StatefulPartitionedCall/Generator/sequential_15/BasicShuffleUnitV2_4/sequential_11/instance_normalization_23/Reshape","shape":[1,1,1,1],"dtype":"float32","quantization":{"dtype":"float16","original_dtype":"float32"}},{"name":"StatefulPartitionedCall/Generator/sequential_15/BasicShuffleUnitV2_4/sequential_11/instance_normalization_23/Reshape_1","shape":[1,1,1,1],"dtype":"float32","quantization":{"dtype":"float16","original_dtype":"float32"}},{"name":"StatefulPartitionedCall/Generator/sequential_15/BasicShuffleUnitV2_4/concat/axis","shape":[],"dtype":"int32"},{"name":"StatefulPartitionedCall/Generator/sequential_15/BasicShuffleUnitV2_4/strided_slice_1/stack","shape":[1],"dtype":"int32"},{"name":"StatefulPartitionedCall/Generator/sequential_15/BasicShuffleUnitV2_4/strided_slice_1/stack_1","shape":[1],"dtype":"int32"},{"name":"StatefulPartitionedCall/Generator/sequential_15/BasicShuffleUnitV2_4/strided_slice_1/stack_2","shape":[1],"dtype":"int32"},{"name":"StatefulPartitionedCall/Generator/sequential_15/BasicShuffleUnitV2_4/Reshape_1/shape/3","shape":[],"dtype":"int32"},{"name":"StatefulPartitionedCall/Generator/sequential_15/BasicShuffleUnitV2_5/sequential_12/conv2d_17/Conv2D/ReadVariableOp","shape":[1,1,192,192],"dtype":"float32","quantization":{"dtype":"float16","original_dtype":"float32"}},{"name":"StatefulPartitionedCall/Generator/sequential_15/BasicShuffleUnitV2_5/sequential_12/instance_normalization_24/reduce_std/reduce_variance/Mean/reduction_indices","shape":[3],"dtype":"int32"},{"name":"StatefulPartitionedCall/Generator/sequential_15/BasicShuffleUnitV2_5/sequential_12/instance_normalization_24/reduce_std/reduce_variance/Mean_1/reduction_indices","shape":[3],"dtype":"int32"},{"name":"StatefulPartitionedCall/Generator/sequential_15/BasicShuffleUnitV2_5/sequential_12/instance_normalization_24/add/y","shape":[],"dtype":"float32","quantization":{"dtype":"float16","original_dtype":"float32"}},{"name":"StatefulPartitionedCall/Generator/sequential_15/BasicShuffleUnitV2_5/sequential_12/instance_normalization_24/Reshape","shape":[1,1,1,1],"dtype":"float32","quantization":{"dtype":"float16","original_dtype":"float32"}},{"name":"StatefulPartitionedCall/Generator/sequential_15/BasicShuffleUnitV2_5/sequential_12/instance_normalization_24/Reshape_1","shape":[1,1,1,1],"dtype":"float32","quantization":{"dtype":"float16","original_dtype":"float32"}},{"name":"StatefulPartitionedCall/Generator/sequential_15/BasicShuffleUnitV2_5/sequential_12/depthwise_conv2d_9/depthwise/ReadVariableOp","shape":[3,3,192,1],"dtype":"float32","quantization":{"dtype":"float16","original_dtype":"float32"}},{"name":"StatefulPartitionedCall/Generator/sequential_15/BasicShuffleUnitV2_5/sequential_12/instance_normalization_25/reduce_std/reduce_variance/Mean/reduction_indices","shape":[3],"dtype":"int32"},{"name":"StatefulPartitionedCall/Generator/sequential_15/BasicShuffleUnitV2_5/sequential_12/instance_normalization_25/reduce_std/reduce_variance/Mean_1/reduction_indices","shape":[3],"dtype":"int32"},{"name":"StatefulPartitionedCall/Generator/sequential_15/BasicShuffleUnitV2_5/sequential_12/instance_normalization_25/add/y","shape":[],"dtype":"float32","quantization":{"dtype":"float16","original_dtype":"float32"}},{"name":"StatefulPartitionedCall/Generator/sequential_15/BasicShuffleUnitV2_5/sequential_12/instance_normalization_25/Reshape","shape":[1,1,1,1],"dtype":"float32","quantization":{"dtype":"float16","original_dtype":"float32"}},{"name":"StatefulPartitionedCall/Generator/sequential_15/BasicShuffleUnitV2_5/sequential_12/instance_normalization_25/Reshape_1","shape":[1,1,1,1],"dtype":"float32","quantization":{"dtype":"float16","original_dtype":"float32"}},{"name":"StatefulPartitionedCall/Generator/sequential_15/BasicShuffleUnitV2_5/sequential_12/conv2d_18/Conv2D/ReadVariableOp","shape":[1,1,192,192],"dtype":"float32","quantization":{"dtype":"float16","original_dtype":"float32"}},{"name":"StatefulPartitionedCall/Generator/sequential_15/BasicShuffleUnitV2_5/sequential_12/instance_normalization_26/reduce_std/reduce_variance/Mean/reduction_indices","shape":[3],"dtype":"int32"},{"name":"StatefulPartitionedCall/Generator/sequential_15/BasicShuffleUnitV2_5/sequential_12/instance_normalization_26/reduce_std/reduce_variance/Mean_1/reduction_indices","shape":[3],"dtype":"int32"},{"name":"StatefulPartitionedCall/Generator/sequential_15/BasicShuffleUnitV2_5/sequential_12/instance_normalization_26/add/y","shape":[],"dtype":"float32","quantization":{"dtype":"float16","original_dtype":"float32"}},{"name":"StatefulPartitionedCall/Generator/sequential_15/BasicShuffleUnitV2_5/sequential_12/instance_normalization_26/Reshape","shape":[1,1,1,1],"dtype":"float32","quantization":{"dtype":"float16","original_dtype":"float32"}},{"name":"StatefulPartitionedCall/Generator/sequential_15/BasicShuffleUnitV2_5/sequential_12/instance_normalization_26/Reshape_1","shape":[1,1,1,1],"dtype":"float32","quantization":{"dtype":"float16","original_dtype":"float32"}},{"name":"StatefulPartitionedCall/Generator/sequential_15/BasicShuffleUnitV2_5/concat/axis","shape":[],"dtype":"int32"},{"name":"StatefulPartitionedCall/Generator/sequential_15/BasicShuffleUnitV2_5/strided_slice_1/stack","shape":[1],"dtype":"int32"},{"name":"StatefulPartitionedCall/Generator/sequential_15/BasicShuffleUnitV2_5/strided_slice_1/stack_1","shape":[1],"dtype":"int32"},{"name":"StatefulPartitionedCall/Generator/sequential_15/BasicShuffleUnitV2_5/strided_slice_1/stack_2","shape":[1],"dtype":"int32"},{"name":"StatefulPartitionedCall/Generator/sequential_15/BasicShuffleUnitV2_5/Reshape_1/shape/3","shape":[],"dtype":"int32"},{"name":"StatefulPartitionedCall/Generator/sequential_15/BasicShuffleUnitV2_6/sequential_13/conv2d_19/Conv2D/ReadVariableOp","shape":[1,1,192,192],"dtype":"float32","quantization":{"dtype":"float16","original_dtype":"float32"}},{"name":"StatefulPartitionedCall/Generator/sequential_15/BasicShuffleUnitV2_6/sequential_13/instance_normalization_27/reduce_std/reduce_variance/Mean/reduction_indices","shape":[3],"dtype":"int32"},{"name":"StatefulPartitionedCall/Generator/sequential_15/BasicShuffleUnitV2_6/sequential_13/instance_normalization_27/reduce_std/reduce_variance/Mean_1/reduction_indices","shape":[3],"dtype":"int32"},{"name":"StatefulPartitionedCall/Generator/sequential_15/BasicShuffleUnitV2_6/sequential_13/instance_normalization_27/add/y","shape":[],"dtype":"float32","quantization":{"dtype":"float16","original_dtype":"float32"}},{"name":"StatefulPartitionedCall/Generator/sequential_15/BasicShuffleUnitV2_6/sequential_13/instance_normalization_27/Reshape","shape":[1,1,1,1],"dtype":"float32","quantization":{"dtype":"float16","original_dtype":"float32"}},{"name":"StatefulPartitionedCall/Generator/sequential_15/BasicShuffleUnitV2_6/sequential_13/instance_normalization_27/Reshape_1","shape":[1,1,1,1],"dtype":"float32","quantization":{"dtype":"float16","original_dtype":"float32"}},{"name":"StatefulPartitionedCall/Generator/sequential_15/BasicShuffleUnitV2_6/sequential_13/depthwise_conv2d_10/depthwise/ReadVariableOp","shape":[3,3,192,1],"dtype":"float32","quantization":{"dtype":"float16","original_dtype":"float32"}},{"name":"StatefulPartitionedCall/Generator/sequential_15/BasicShuffleUnitV2_6/sequential_13/instance_normalization_28/reduce_std/reduce_variance/Mean/reduction_indices","shape":[3],"dtype":"int32"},{"name":"StatefulPartitionedCall/Generator/sequential_15/BasicShuffleUnitV2_6/sequential_13/instance_normalization_28/reduce_std/reduce_variance/Mean_1/reduction_indices","shape":[3],"dtype":"int32"},{"name":"StatefulPartitionedCall/Generator/sequential_15/BasicShuffleUnitV2_6/sequential_13/instance_normalization_28/add/y","shape":[],"dtype":"float32","quantization":{"dtype":"float16","original_dtype":"float32"}},{"name":"StatefulPartitionedCall/Generator/sequential_15/BasicShuffleUnitV2_6/sequential_13/instance_normalization_28/Reshape","shape":[1,1,1,1],"dtype":"float32","quantization":{"dtype":"float16","original_dtype":"float32"}},{"name":"StatefulPartitionedCall/Generator/sequential_15/BasicShuffleUnitV2_6/sequential_13/instance_normalization_28/Reshape_1","shape":[1,1,1,1],"dtype":"float32","quantization":{"dtype":"float16","original_dtype":"float32"}},{"name":"StatefulPartitionedCall/Generator/sequential_15/BasicShuffleUnitV2_6/sequential_13/conv2d_20/Conv2D/ReadVariableOp","shape":[1,1,192,192],"dtype":"float32","quantization":{"dtype":"float16","original_dtype":"float32"}},{"name":"StatefulPartitionedCall/Generator/sequential_15/BasicShuffleUnitV2_6/sequential_13/instance_normalization_29/reduce_std/reduce_variance/Mean/reduction_indices","shape":[3],"dtype":"int32"},{"name":"StatefulPartitionedCall/Generator/sequential_15/BasicShuffleUnitV2_6/sequential_13/instance_normalization_29/reduce_std/reduce_variance/Mean_1/reduction_indices","shape":[3],"dtype":"int32"},{"name":"StatefulPartitionedCall/Generator/sequential_15/BasicShuffleUnitV2_6/sequential_13/instance_normalization_29/add/y","shape":[],"dtype":"float32","quantization":{"dtype":"float16","original_dtype":"float32"}},{"name":"StatefulPartitionedCall/Generator/sequential_15/BasicShuffleUnitV2_6/sequential_13/instance_normalization_29/Reshape","shape":[1,1,1,1],"dtype":"float32","quantization":{"dtype":"float16","original_dtype":"float32"}},{"name":"StatefulPartitionedCall/Generator/sequential_15/BasicShuffleUnitV2_6/sequential_13/instance_normalization_29/Reshape_1","shape":[1,1,1,1],"dtype":"float32","quantization":{"dtype":"float16","original_dtype":"float32"}},{"name":"StatefulPartitionedCall/Generator/sequential_15/BasicShuffleUnitV2_6/concat/axis","shape":[],"dtype":"int32"},{"name":"StatefulPartitionedCall/Generator/sequential_15/BasicShuffleUnitV2_6/strided_slice_1/stack","shape":[1],"dtype":"int32"},{"name":"StatefulPartitionedCall/Generator/sequential_15/BasicShuffleUnitV2_6/strided_slice_1/stack_1","shape":[1],"dtype":"int32"},{"name":"StatefulPartitionedCall/Generator/sequential_15/BasicShuffleUnitV2_6/strided_slice_1/stack_2","shape":[1],"dtype":"int32"},{"name":"StatefulPartitionedCall/Generator/sequential_15/BasicShuffleUnitV2_6/Reshape_1/shape/3","shape":[],"dtype":"int32"},{"name":"StatefulPartitionedCall/Generator/sequential_15/BasicShuffleUnitV2_7/sequential_14/conv2d_21/Conv2D/ReadVariableOp","shape":[1,1,192,192],"dtype":"float32","quantization":{"dtype":"float16","original_dtype":"float32"}},{"name":"StatefulPartitionedCall/Generator/sequential_15/BasicShuffleUnitV2_7/sequential_14/instance_normalization_30/reduce_std/reduce_variance/Mean/reduction_indices","shape":[3],"dtype":"int32"},{"name":"StatefulPartitionedCall/Generator/sequential_15/BasicShuffleUnitV2_7/sequential_14/instance_normalization_30/reduce_std/reduce_variance/Mean_1/reduction_indices","shape":[3],"dtype":"int32"},{"name":"StatefulPartitionedCall/Generator/sequential_15/BasicShuffleUnitV2_7/sequential_14/instance_normalization_30/add/y","shape":[],"dtype":"float32","quantization":{"dtype":"float16","original_dtype":"float32"}},{"name":"StatefulPartitionedCall/Generator/sequential_15/BasicShuffleUnitV2_7/sequential_14/instance_normalization_30/Reshape","shape":[1,1,1,1],"dtype":"float32","quantization":{"dtype":"float16","original_dtype":"float32"}},{"name":"StatefulPartitionedCall/Generator/sequential_15/BasicShuffleUnitV2_7/sequential_14/instance_normalization_30/Reshape_1","shape":[1,1,1,1],"dtype":"float32","quantization":{"dtype":"float16","original_dtype":"float32"}},{"name":"StatefulPartitionedCall/Generator/sequential_15/BasicShuffleUnitV2_7/sequential_14/depthwise_conv2d_11/depthwise/ReadVariableOp","shape":[3,3,192,1],"dtype":"float32","quantization":{"dtype":"float16","original_dtype":"float32"}},{"name":"StatefulPartitionedCall/Generator/sequential_15/BasicShuffleUnitV2_7/sequential_14/instance_normalization_31/reduce_std/reduce_variance/Mean/reduction_indices","shape":[3],"dtype":"int32"},{"name":"StatefulPartitionedCall/Generator/sequential_15/BasicShuffleUnitV2_7/sequential_14/instance_normalization_31/reduce_std/reduce_variance/Mean_1/reduction_indices","shape":[3],"dtype":"int32"},{"name":"StatefulPartitionedCall/Generator/sequential_15/BasicShuffleUnitV2_7/sequential_14/instance_normalization_31/add/y","shape":[],"dtype":"float32","quantization":{"dtype":"float16","original_dtype":"float32"}},{"name":"StatefulPartitionedCall/Generator/sequential_15/BasicShuffleUnitV2_7/sequential_14/instance_normalization_31/Reshape","shape":[1,1,1,1],"dtype":"float32","quantization":{"dtype":"float16","original_dtype":"float32"}},{"name":"StatefulPartitionedCall/Generator/sequential_15/BasicShuffleUnitV2_7/sequential_14/instance_normalization_31/Reshape_1","shape":[1,1,1,1],"dtype":"float32","quantization":{"dtype":"float16","original_dtype":"float32"}},{"name":"StatefulPartitionedCall/Generator/sequential_15/BasicShuffleUnitV2_7/sequential_14/conv2d_22/Conv2D/ReadVariableOp","shape":[1,1,192,192],"dtype":"float32","quantization":{"dtype":"float16","original_dtype":"float32"}},{"name":"StatefulPartitionedCall/Generator/sequential_15/BasicShuffleUnitV2_7/sequential_14/instance_normalization_32/reduce_std/reduce_variance/Mean/reduction_indices","shape":[3],"dtype":"int32"},{"name":"StatefulPartitionedCall/Generator/sequential_15/BasicShuffleUnitV2_7/sequential_14/instance_normalization_32/reduce_std/reduce_variance/Mean_1/reduction_indices","shape":[3],"dtype":"int32"},{"name":"StatefulPartitionedCall/Generator/sequential_15/BasicShuffleUnitV2_7/sequential_14/instance_normalization_32/add/y","shape":[],"dtype":"float32","quantization":{"dtype":"float16","original_dtype":"float32"}},{"name":"StatefulPartitionedCall/Generator/sequential_15/BasicShuffleUnitV2_7/sequential_14/instance_normalization_32/Reshape","shape":[1,1,1,1],"dtype":"float32","quantization":{"dtype":"float16","original_dtype":"float32"}},{"name":"StatefulPartitionedCall/Generator/sequential_15/BasicShuffleUnitV2_7/sequential_14/instance_normalization_32/Reshape_1","shape":[1,1,1,1],"dtype":"float32","quantization":{"dtype":"float16","original_dtype":"float32"}},{"name":"StatefulPartitionedCall/Generator/sequential_15/BasicShuffleUnitV2_7/concat/axis","shape":[],"dtype":"int32"},{"name":"StatefulPartitionedCall/Generator/sequential_15/BasicShuffleUnitV2_7/strided_slice_1/stack","shape":[1],"dtype":"int32"},{"name":"StatefulPartitionedCall/Generator/sequential_15/BasicShuffleUnitV2_7/strided_slice_1/stack_1","shape":[1],"dtype":"int32"},{"name":"StatefulPartitionedCall/Generator/sequential_15/BasicShuffleUnitV2_7/strided_slice_1/stack_2","shape":[1],"dtype":"int32"},{"name":"StatefulPartitionedCall/Generator/sequential_15/BasicShuffleUnitV2_7/Reshape_1/shape/3","shape":[],"dtype":"int32"},{"name":"StatefulPartitionedCall/Generator/UpSampleConv/strided_slice/stack","shape":[1],"dtype":"int32"},{"name":"StatefulPartitionedCall/Generator/UpSampleConv/strided_slice/stack_1","shape":[1],"dtype":"int32"},{"name":"StatefulPartitionedCall/Generator/UpSampleConv/strided_slice/stack_2","shape":[1],"dtype":"int32"},{"name":"StatefulPartitionedCall/Generator/UpSampleConv/Const","shape":[2],"dtype":"int32"},{"name":"StatefulPartitionedCall/Generator/UpSampleConv/sequential_17/conv2d_23/Conv2D/ReadVariableOp","shape":[1,1,384,192],"dtype":"float32","quantization":{"dtype":"float16","original_dtype":"float32"}},{"name":"StatefulPartitionedCall/Generator/UpSampleConv/sequential_17/conv2d_23/BiasAdd/ReadVariableOp","shape":[192],"dtype":"float32","quantization":{"dtype":"float16","original_dtype":"float32"}},{"name":"StatefulPartitionedCall/Generator/UpSampleConv/sequential_17/BasicShuffleUnitV2/sequential_16/conv2d_24/Conv2D/ReadVariableOp","shape":[1,1,96,96],"dtype":"float32","quantization":{"dtype":"float16","original_dtype":"float32"}},{"name":"StatefulPartitionedCall/Generator/UpSampleConv/sequential_17/BasicShuffleUnitV2/sequential_16/instance_normalization_33/reduce_std/reduce_variance/Mean/reduction_indices","shape":[3],"dtype":"int32"},{"name":"StatefulPartitionedCall/Generator/UpSampleConv/sequential_17/BasicShuffleUnitV2/sequential_16/instance_normalization_33/reduce_std/reduce_variance/Mean_1/reduction_indices","shape":[3],"dtype":"int32"},{"name":"StatefulPartitionedCall/Generator/UpSampleConv/sequential_17/BasicShuffleUnitV2/sequential_16/instance_normalization_33/add/y","shape":[],"dtype":"float32","quantization":{"dtype":"float16","original_dtype":"float32"}},{"name":"StatefulPartitionedCall/Generator/UpSampleConv/sequential_17/BasicShuffleUnitV2/sequential_16/instance_normalization_33/Reshape","shape":[1,1,1,1],"dtype":"float32","quantization":{"dtype":"float16","original_dtype":"float32"}},{"name":"StatefulPartitionedCall/Generator/UpSampleConv/sequential_17/BasicShuffleUnitV2/sequential_16/instance_normalization_33/Reshape_1","shape":[1,1,1,1],"dtype":"float32","quantization":{"dtype":"float16","original_dtype":"float32"}},{"name":"StatefulPartitionedCall/Generator/UpSampleConv/sequential_17/BasicShuffleUnitV2/sequential_16/depthwise_conv2d_12/depthwise/ReadVariableOp","shape":[3,3,96,1],"dtype":"float32","quantization":{"dtype":"float16","original_dtype":"float32"}},{"name":"StatefulPartitionedCall/Generator/UpSampleConv/sequential_17/BasicShuffleUnitV2/sequential_16/instance_normalization_34/reduce_std/reduce_variance/Mean/reduction_indices","shape":[3],"dtype":"int32"},{"name":"StatefulPartitionedCall/Generator/UpSampleConv/sequential_17/BasicShuffleUnitV2/sequential_16/instance_normalization_34/reduce_std/reduce_variance/Mean_1/reduction_indices","shape":[3],"dtype":"int32"},{"name":"StatefulPartitionedCall/Generator/UpSampleConv/sequential_17/BasicShuffleUnitV2/sequential_16/instance_normalization_34/add/y","shape":[],"dtype":"float32","quantization":{"dtype":"float16","original_dtype":"float32"}},{"name":"StatefulPartitionedCall/Generator/UpSampleConv/sequential_17/BasicShuffleUnitV2/sequential_16/instance_normalization_34/Reshape","shape":[1,1,1,1],"dtype":"float32","quantization":{"dtype":"float16","original_dtype":"float32"}},{"name":"StatefulPartitionedCall/Generator/UpSampleConv/sequential_17/BasicShuffleUnitV2/sequential_16/instance_normalization_34/Reshape_1","shape":[1,1,1,1],"dtype":"float32","quantization":{"dtype":"float16","original_dtype":"float32"}},{"name":"StatefulPartitionedCall/Generator/UpSampleConv/sequential_17/BasicShuffleUnitV2/sequential_16/conv2d_25/Conv2D/ReadVariableOp","shape":[1,1,96,96],"dtype":"float32","quantization":{"dtype":"float16","original_dtype":"float32"}},{"name":"StatefulPartitionedCall/Generator/UpSampleConv/sequential_17/BasicShuffleUnitV2/sequential_16/instance_normalization_35/reduce_std/reduce_variance/Mean/reduction_indices","shape":[3],"dtype":"int32"},{"name":"StatefulPartitionedCall/Generator/UpSampleConv/sequential_17/BasicShuffleUnitV2/sequential_16/instance_normalization_35/reduce_std/reduce_variance/Mean_1/reduction_indices","shape":[3],"dtype":"int32"},{"name":"StatefulPartitionedCall/Generator/UpSampleConv/sequential_17/BasicShuffleUnitV2/sequential_16/instance_normalization_35/add/y","shape":[],"dtype":"float32","quantization":{"dtype":"float16","original_dtype":"float32"}},{"name":"StatefulPartitionedCall/Generator/UpSampleConv/sequential_17/BasicShuffleUnitV2/sequential_16/instance_normalization_35/Reshape","shape":[1,1,1,1],"dtype":"float32","quantization":{"dtype":"float16","original_dtype":"float32"}},{"name":"StatefulPartitionedCall/Generator/UpSampleConv/sequential_17/BasicShuffleUnitV2/sequential_16/instance_normalization_35/Reshape_1","shape":[1,1,1,1],"dtype":"float32","quantization":{"dtype":"float16","original_dtype":"float32"}},{"name":"StatefulPartitionedCall/Generator/UpSampleConv/sequential_17/BasicShuffleUnitV2/concat/axis","shape":[],"dtype":"int32"},{"name":"StatefulPartitionedCall/Generator/UpSampleConv/sequential_17/BasicShuffleUnitV2/strided_slice_1/stack","shape":[1],"dtype":"int32"},{"name":"StatefulPartitionedCall/Generator/UpSampleConv/sequential_17/BasicShuffleUnitV2/strided_slice_1/stack_1","shape":[1],"dtype":"int32"},{"name":"StatefulPartitionedCall/Generator/UpSampleConv/sequential_17/BasicShuffleUnitV2/strided_slice_1/stack_2","shape":[1],"dtype":"int32"},{"name":"StatefulPartitionedCall/Generator/UpSampleConv/sequential_17/BasicShuffleUnitV2/Reshape_1/shape/3","shape":[],"dtype":"int32"},{"name":"StatefulPartitionedCall/Generator/UpSampleConv_1/strided_slice/stack","shape":[1],"dtype":"int32"},{"name":"StatefulPartitionedCall/Generator/UpSampleConv_1/strided_slice/stack_1","shape":[1],"dtype":"int32"},{"name":"StatefulPartitionedCall/Generator/UpSampleConv_1/strided_slice/stack_2","shape":[1],"dtype":"int32"},{"name":"StatefulPartitionedCall/Generator/UpSampleConv_1/Const","shape":[2],"dtype":"int32"},{"name":"StatefulPartitionedCall/Generator/UpSampleConv_1/sequential_19/conv2d_26/Conv2D/ReadVariableOp","shape":[1,1,192,96],"dtype":"float32","quantization":{"dtype":"float16","original_dtype":"float32"}},{"name":"StatefulPartitionedCall/Generator/UpSampleConv_1/sequential_19/conv2d_26/BiasAdd/ReadVariableOp","shape":[96],"dtype":"float32","quantization":{"dtype":"float16","original_dtype":"float32"}},{"name":"StatefulPartitionedCall/Generator/UpSampleConv_1/sequential_19/BasicShuffleUnitV2/sequential_18/conv2d_27/Conv2D/ReadVariableOp","shape":[1,1,48,48],"dtype":"float32","quantization":{"dtype":"float16","original_dtype":"float32"}},{"name":"StatefulPartitionedCall/Generator/UpSampleConv_1/sequential_19/BasicShuffleUnitV2/sequential_18/instance_normalization_36/reduce_std/reduce_variance/Mean/reduction_indices","shape":[3],"dtype":"int32"},{"name":"StatefulPartitionedCall/Generator/UpSampleConv_1/sequential_19/BasicShuffleUnitV2/sequential_18/instance_normalization_36/reduce_std/reduce_variance/Mean_1/reduction_indices","shape":[3],"dtype":"int32"},{"name":"StatefulPartitionedCall/Generator/UpSampleConv_1/sequential_19/BasicShuffleUnitV2/sequential_18/instance_normalization_36/add/y","shape":[],"dtype":"float32","quantization":{"dtype":"float16","original_dtype":"float32"}},{"name":"StatefulPartitionedCall/Generator/UpSampleConv_1/sequential_19/BasicShuffleUnitV2/sequential_18/instance_normalization_36/Reshape","shape":[1,1,1,1],"dtype":"float32","quantization":{"dtype":"float16","original_dtype":"float32"}},{"name":"StatefulPartitionedCall/Generator/UpSampleConv_1/sequential_19/BasicShuffleUnitV2/sequential_18/instance_normalization_36/Reshape_1","shape":[1,1,1,1],"dtype":"float32","quantization":{"dtype":"float16","original_dtype":"float32"}},{"name":"StatefulPartitionedCall/Generator/UpSampleConv_1/sequential_19/BasicShuffleUnitV2/sequential_18/depthwise_conv2d_13/depthwise/ReadVariableOp","shape":[3,3,48,1],"dtype":"float32","quantization":{"dtype":"float16","original_dtype":"float32"}},{"name":"StatefulPartitionedCall/Generator/UpSampleConv_1/sequential_19/BasicShuffleUnitV2/sequential_18/instance_normalization_37/reduce_std/reduce_variance/Mean/reduction_indices","shape":[3],"dtype":"int32"},{"name":"StatefulPartitionedCall/Generator/UpSampleConv_1/sequential_19/BasicShuffleUnitV2/sequential_18/instance_normalization_37/reduce_std/reduce_variance/Mean_1/reduction_indices","shape":[3],"dtype":"int32"},{"name":"StatefulPartitionedCall/Generator/UpSampleConv_1/sequential_19/BasicShuffleUnitV2/sequential_18/instance_normalization_37/add/y","shape":[],"dtype":"float32","quantization":{"dtype":"float16","original_dtype":"float32"}},{"name":"StatefulPartitionedCall/Generator/UpSampleConv_1/sequential_19/BasicShuffleUnitV2/sequential_18/instance_normalization_37/Reshape","shape":[1,1,1,1],"dtype":"float32","quantization":{"dtype":"float16","original_dtype":"float32"}},{"name":"StatefulPartitionedCall/Generator/UpSampleConv_1/sequential_19/BasicShuffleUnitV2/sequential_18/instance_normalization_37/Reshape_1","shape":[1,1,1,1],"dtype":"float32","quantization":{"dtype":"float16","original_dtype":"float32"}},{"name":"StatefulPartitionedCall/Generator/UpSampleConv_1/sequential_19/BasicShuffleUnitV2/sequential_18/conv2d_28/Conv2D/ReadVariableOp","shape":[1,1,48,48],"dtype":"float32","quantization":{"dtype":"float16","original_dtype":"float32"}},{"name":"StatefulPartitionedCall/Generator/UpSampleConv_1/sequential_19/BasicShuffleUnitV2/sequential_18/instance_normalization_38/reduce_std/reduce_variance/Mean/reduction_indices","shape":[3],"dtype":"int32"},{"name":"StatefulPartitionedCall/Generator/UpSampleConv_1/sequential_19/BasicShuffleUnitV2/sequential_18/instance_normalization_38/reduce_std/reduce_variance/Mean_1/reduction_indices","shape":[3],"dtype":"int32"},{"name":"StatefulPartitionedCall/Generator/UpSampleConv_1/sequential_19/BasicShuffleUnitV2/sequential_18/instance_normalization_38/add/y","shape":[],"dtype":"float32","quantization":{"dtype":"float16","original_dtype":"float32"}},{"name":"StatefulPartitionedCall/Generator/UpSampleConv_1/sequential_19/BasicShuffleUnitV2/sequential_18/instance_normalization_38/Reshape","shape":[1,1,1,1],"dtype":"float32","quantization":{"dtype":"float16","original_dtype":"float32"}},{"name":"StatefulPartitionedCall/Generator/UpSampleConv_1/sequential_19/BasicShuffleUnitV2/sequential_18/instance_normalization_38/Reshape_1","shape":[1,1,1,1],"dtype":"float32","quantization":{"dtype":"float16","original_dtype":"float32"}},{"name":"StatefulPartitionedCall/Generator/UpSampleConv_1/sequential_19/BasicShuffleUnitV2/concat/axis","shape":[],"dtype":"int32"},{"name":"StatefulPartitionedCall/Generator/UpSampleConv_1/sequential_19/BasicShuffleUnitV2/strided_slice_1/stack","shape":[1],"dtype":"int32"},{"name":"StatefulPartitionedCall/Generator/UpSampleConv_1/sequential_19/BasicShuffleUnitV2/strided_slice_1/stack_1","shape":[1],"dtype":"int32"},{"name":"StatefulPartitionedCall/Generator/UpSampleConv_1/sequential_19/BasicShuffleUnitV2/strided_slice_1/stack_2","shape":[1],"dtype":"int32"},{"name":"StatefulPartitionedCall/Generator/UpSampleConv_1/sequential_19/BasicShuffleUnitV2/Reshape_1/shape/3","shape":[],"dtype":"int32"},{"name":"StatefulPartitionedCall/Generator/sequential_20/zero_padding2d_1/Pad/paddings","shape":[4,2],"dtype":"int32"},{"name":"StatefulPartitionedCall/Generator/sequential_20/conv2d_29/Conv2D/ReadVariableOp","shape":[5,5,96,3],"dtype":"float32","quantization":{"dtype":"float16","original_dtype":"float32"}},{"name":"StatefulPartitionedCall/Generator/sequential_20/conv2d_29/BiasAdd/ReadVariableOp","shape":[3],"dtype":"float32","quantization":{"dtype":"float16","original_dtype":"float32"}}]
      }
  ]
}